dtu_mlops_cookiecutter_example/models/model.pt (torch, 144436 bytes, 6 tensors)

weight f4 [32, 1, 3, 3]
000000 2c de 5c 3e a9 20 b4 3e 8d 40 73 bc 2c e6 d3 3e
       0.21569127 0.35181168 -0.014846933 0.41386545
000010 8b 5e c9 3b 6d fd 05 bd 84 21 53 3e 7b e3 11 3a
       0.0061453036 -0.03271239 0.20618254 0.0005565208
000020 26 99 89 3e 2d 34 33 3e 2e 1e de 3e f9 47 66 3e
       0.26874655 0.17500372 0.433824 0.22488393
000030 90 cf a8 3e 2c 5b 92 3e ce a1 ad bd 71 ac 99 bd
       0.32970858 0.28585184 -0.084781274 -0.07503594
000040 4e ca 9b 3d 4d b2 f9 3d 95 c9 8b 3d 8f 81 aa 3e
       0.07606946 0.12192211 0.06825558 0.3330197
000050 6a 1f be 3e ef 16 ea 3c 8f 50 53 3e 8b ff c1 3e
       0.37133342 0.028575389 0.206362 0.37890276
000060 a0 a5 b1 3d b0 be 1b bd 89 ae f8 3d 66 60 9c be
       0.086741686 -0.03802365 0.12142665 -0.30542296
000070 b3 ca aa 3d 58 0d 90 be 91 03 6f 3b 4d 41 17 be
       0.08339443 -0.2813518 0.0036470632 -0.14771004
000080 6b 8d 11 be c2 f4 83 be f1 c7 06 3e 85 88 ca be
       -0.14214103 -0.25772673 0.13162209 -0.3955728
000090 92 2d 20 be ba ff 84 be 75 6a bd 3e 79 a1 22 3e
       -0.15642384 -0.25976354 0.36995283 0.1588191
0000a0 66 52 cd 3c 29 c7 fa bd 69 e7 99 3e 71 90 a4 3e
       0.025063705 -0.12245018 0.30059364 0.3214145
0000b0 25 00 97 3d 37 98 2d 3e d6 f5 7c 3d c1 b1 51 be
       0.073730744 0.16952597 0.061757885 -0.20477964
0000c0 1f a9 32 3e 6d 22 e0 3e 7c 38 3f 3e 9a 29 4a 3e
       0.17447327 0.43776265 0.18673891 0.19742432
0000d0 29 84 83 3e e8 72 9a 3e 34 0f fe bd a5 b6 71 be
       0.25686768 0.30165792 -0.124052435 -0.2360483
0000e0 32 8d 46 3e 9a d6 d4 bd 77 7b 2e 3e 58 52 92 be
       0.19389799 -0.103924945 0.17039286 -0.28578448
0000f0 93 21 45 be b2 b9 c1 be 59 29 a0 be f8 79 39 be
       -0.19251089 -0.37836987 -0.31281546 -0.18112934
000100 89 5b 6a bd ba db b2 3b ab 97 ae 3e 06 30 02 3e
       -0.0572162 0.0054583224 0.34100088 0.12713632
000110 f8 ef d4 3e 3a 95 b8 bd 2b f0 c6 3e 9a 82 11 be
       0.41589332 -0.09012838 0.3885511 -0.14209977
000120 0d 31 24 be a9 47 65 3e 65 25 60 bd 2f 30 19 bd
       -0.16034336 0.22390617 -0.054723162 -0.037399467
000130 4d b5 47 3e cf 18 14 3e e1 82 fc 3c e2 2e 0a be
       0.19502755 0.14462589 0.030824127 -0.13494447
000140 61 5e 58 3e 50 d8 88 be 87 1f 65 be 60 c1 96 be
       0.21129753 -0.26727533 -0.22375308 -0.29444408
000150 20 7d 29 3e bf b2 87 3d 75 94 46 3e 48 97 6d 3e
       0.16551638 0.0662589 0.1939257 0.2320224
000160 9b 49 85 3e 2f 32 15 3d 06 6a 5d be 37 d2 db bb
       0.2603272 0.036424812 -0.21622476 -0.006708409
000170 17 4c c1 3e 7b 84 85 3d 21 c5 c1 3e 79 8b c5 3a
       0.37753364 0.06519409 0.3784571 0.0015071473
000180 f6 fb 44 3e 64 83 9d 3e 25 c3 55 3e 24 44 ed 3d
       0.1923674 0.30764306 0.20875223 0.115852624
000190 45 67 61 be 60 e0 9c 3e 86 95 94 3e 59 a9 8e 3e
       -0.2201205 0.30639935 0.29020327 0.27863577
0001a0 50 ef 7f bd a6 8d c8 3e 06 9b 54 3e f9 25 a6 3e
       -0.062484086 0.3917057 0.20762262 0.32450846
0001b0 8a 0e b8 be 6b 7f 43 bd 34 63 86 be de a3 4c be
       -0.35948592 -0.047728937 -0.2624756 -0.19984385
0001c0 82 d0 cd 3e c1 b9 5a be 85 80 b9 3c 5e d0 3d 3e
       0.4019814 -0.21359922 0.02264429 0.18536517
0001d0 ec 53 aa 3e d6 8b 57 bc 87 c0 05 be 3d 98 81 3d
       0.33267152 -0.013155898 -0.13061725 0.06327865
0001e0 fe b4 c5 3e aa 8c ad 3e 38 39 89 3e d6 da 5a 3d
       0.3861465 0.3389638 0.26801467 0.053431354
0001f0 a5 2b b4 bd 2f 1b b0 3e 68 bf 81 3e c8 2f dd 3d
       -0.08797387 0.3439574 0.25341344 0.10800129
000200 36 16 3c 3e a9 d6 94 3e 62 a6 55 3e 55 01 d6 bd
       0.18367848 0.29070023 0.20864251 -0.10449473
000210 17 b5 39 bd 7e 1a 0c be a0 76 c9 3e c6 eb 4c 3e
       -0.045338716 -0.13681981 0.39348316 0.20011815
000220 44 33 65 3d 58 af dd 3d 97 f1 bb 3c c2 cd 0a 3e
       0.055957094 0.1082446 0.022942347 0.13555053
000230 d2 fd c4 3e e0 6f 89 3e 76 e3 3c be ca d8 05 3e
       0.384749 0.26843166 -0.18446144 0.1307098
000240 45 20 8e bd 74 c5 86 3e 86 31 2a 3e af a4 9e 3d
       -0.06939749 0.2632252 0.16620454 0.07746255
000250 7a de ce bd 61 f7 42 3e 5f 82 83 be 74 7e a8 3e
       -0.10101028 0.1903968 -0.25685403 0.32908976
000260 ae e5 d0 3e 9b d8 81 be d2 91 63 3e eb 42 17 bd
       0.40800232 -0.2536057 0.22223595 -0.036929052
000270 f3 9b d8 3c f4 6b a9 be df e0 b1 be 6f 8f cd be
       0.02644155 -0.33090174 -0.34741876 -0.40148494
000280 86 ef 1b be 42 1e 8f be 96 4b 9d bd 56 2f 88 be
       -0.1522809 -0.27952772 -0.076804325 -0.26598614
000290 2d d3 d0 bd 1d e2 20 3e 5c 79 1c 3c dd ae 22 3e
       -0.101965286 0.15711255 0.009550419 0.15887018
0002a0 58 0c 86 3d 89 b7 43 3e 1a 96 9b 3e 85 8b d2 bc
       0.06545323 0.19112982 0.30387956 -0.025701294
0002b0 e0 9b 59 bd 15 ca ac 3e 90 84 c8 3e fe 3d f3 3e
       -0.05312717 0.33747926 0.39163637 0.47508234
0002c0 e9 fb 2f bd 63 92 d4 bd 8a 77 40 3e c7 f1 e1 3d
       -0.04296485 -0.103794836 0.187956 0.110324435
0002d0 6d 3d 9c be 6d 9c c4 be 4d 64 21 3e 3e 91 2a be
       -0.30515614 -0.38400593 0.15760918 -0.16656968
0002e0 52 d0 87 be d4 78 ba be 7a 70 c8 be 92 d1 c8 be
       -0.26526123 -0.3642031 -0.39148313 -0.3922239
0002f0 dc 14 cf be 9d a9 13 3e 8b 40 f0 bd 0e a2 aa 3e
       -0.40445602 0.14420171 -0.117310606 0.33326763
000300 84 3e 10 be 81 6b 13 3d 96 0f 7e be 8c 5b c5 3e
       -0.14086348 0.035991196 -0.24810633 0.38546407
000310 54 dc fa 3d 3f e0 2c bd e3 f6 c6 3e 91 4f 7f 3e
       0.122490555 -0.042206045 0.38860235 0.24932696
000320 c6 9a af 3e 6b 64 ed be 17 01 c5 be 3c c9 d5 be
       0.3429777 -0.46365675 -0.38477394 -0.41755092
000330 6f 25 00 3e 5d 35 f0 be 62 f4 7f be 6d 55 2f bd
       0.1251428 -0.46915713 -0.24995568 -0.042806078
000340 dc e9 ac 3d 6a e3 80 3e 31 17 a1 bd b3 04 79 3e
       0.08443043 0.25173503 -0.078657515 0.24318199
000350 d7 2f 29 bc 8d ed b4 3e ae 00 f0 3e 5a 52 82 3e
       -0.010326347 0.35337487 0.4687552 0.25453454
000360 5b 3e c9 3e a9 d2 7f be 55 90 da bd ab 0a 54 3e
       0.39305386 -0.24982704 -0.106720604 0.20707195
000370 95 67 ac 3e 64 08 d4 3d 01 83 58 3b 43 bf 99 3e
       0.33672777 0.10353163 0.0033037069 0.30028734
000380 3d c1 94 bc b0 d8 a4 be c9 5f 5c be 62 34 09 be
       -0.01815855 -0.3219657 -0.21520914 -0.13398889
000390 29 1e ec 3c 6b d5 e5 bc 94 54 3b 3e e5 ae 22 be
       0.028822975 -0.028055867 0.18293983 -0.1588703
0003a0 8d 53 9b be 75 6a bf be 95 4f 89 bd b3 97 a7 be
       -0.30337182 -0.37385908 -0.06704632 -0.32732925
0003b0 a0 ff d5 be 41 9f 8b be 0b 13 56 be ec a7 75 bc
       -0.4179659 -0.2726994 -0.20905702 -0.014993649
0003c0 a7 ac d3 be 43 c3 14 be 80 dc 3c 3d 77 1d 61 bd
       -0.4134266 -0.14527611 0.046108723 -0.05495974
0003d0 46 5a 9e be 7f 31 89 3e 40 c9 9a 3e 8a f6 a6 bd
       -0.30928248 0.26795575 0.30231667 -0.08152492
0003e0 8c 5d e9 3e d0 6a d5 3e fd 82 48 bd 00 65 9f 3e
       0.45579183 0.41683054 -0.048953045 0.31131744
0003f0 17 5f b1 be 14 dd 5f be e9 ae bd be 5c e9 60 be
       -0.3464286 -0.21861678 -0.37047508 -0.2196402

bias f4 [32]
000000 c9 68 c5 bd 35 fb e5 bd 0a 3e 98 b9 00 a3 c0 3e
       -0.09639127 -0.112295546 -0.00029037922 0.3762436
000010 fb c9 1c bc b1 b6 f3 bd 0d e2 6c 3e c0 07 8a 3e
       -0.00956964 -0.1190008 0.23133107 0.26959038
000020 4b be cb ba 13 9c 73 3e a8 5c d5 b9 d5 9a 1f be
       -0.0015544383 0.23790006 -0.0004069556 -0.15586407
000030 66 62 e4 3d de 1c cc 3d 1c cf 3e 3e 8b fe 41 3d
       0.111515805 0.099664435 0.18633693 0.04736189
000040 30 d3 01 3e 19 46 a4 3e c1 30 1e 3d cc 09 c7 bc
       0.12678218 0.3208473 0.038620714 -0.024296664
000050 a9 89 b8 3e 57 71 ff 3c 69 d8 6f 3e e2 36 0d be
       0.36042526 0.031181974 0.23422398 -0.13790467
000060 27 4d 11 ba 1f 1f aa be 34 d8 9d 3e 88 48 e2 bd
       -0.00055428076 -0.3322687 0.30829012 -0.110489905
000070 82 4e 7d 3e 52 8b 67 be 0a ef 8c 3e d0 b9 14 be
       0.2473698 -0.2261174 0.27526122 -0.14524007

weight f4 [64, 32, 3, 3]
000000 1e 11 d1 bd 27 dd b6 bd d9 1d 11 3d 27 73 99 bd
       -0.10208343 -0.089289 0.035428856 -0.07492667
000010 62 f6 04 bc 13 ea 33 3d d5 28 c4 3d af 13 56 3d
       -0.008115383 0.043924402 0.095781006 0.052264865
000020 e6 3a c1 3d b3 60 37 be bf ad f7 bc 4e b2 e0 bc
       0.09435062 -0.17907982 -0.030234216 -0.027428772
000030 28 e8 10 be 3f f5 05 3d 17 4c 5a 3d b2 ce 18 bc
       -0.1415106 0.032704588 0.05329522 -0.009326624
000040 54 2f 72 3d 41 53 26 3d d9 58 a9 3c 33 01 8d 3c
       0.059127167 0.04060674 0.020672249 0.017212486
000050 a1 67 b9 3c 34 29 d2 3c d6 31 a0 3d 65 64 ed 3d
       0.022632422 0.025654413 0.078220055 0.11591414
000060 a5 dd e7 3d 9e 87 c3 3d 0c d4 8a 3d 8a 02 24 3c
       0.11321572 0.09547351 0.06778726 0.010010371
000070 79 d7 0b bd 99 5c aa bb 55 7c 8c bd 4f 74 69 bd
       -0.034141038 -0.005199027 -0.06859652 -0.056995686
000080 32 30 0e 3d aa 58 08 3d 63 3a cf 3c 75 d1 03 3c
       0.03471393 0.03328768 0.025296396 0.008045544
000090 55 15 98 3c c9 3d b2 3d a3 9d 41 3d 7b 67 c6 3d
       0.01856486 0.08703191 0.047269475 0.09687706
0000a0 3a c5 5f 3d 14 4c d2 3b 51 c4 e8 3d f1 a4 00 bd
       0.05463145 0.0064177606 0.113655694 -0.0314073
0000b0 07 ab 34 bd ce f0 ad bd 04 92 3c 3c 92 82 e2 3d
       -0.044108417 -0.084931955 0.011509422 0.110600606
0000c0 e4 52 80 3d 08 6e 27 3d a3 5d 5b 3d dc 22 85 3d
       0.0626581 0.04087642 0.053556096 0.065007895
0000d0 4f 74 90 3c 4b c6 c4 3d 64 d2 1f bd 39 a2 bb bc
       0.017633585 0.09608134 -0.039019004 -0.022904502
0000e0 a2 ca b1 bd 77 86 50 bd a4 74 d6 bd de 8d d9 3a
       -0.08681227 -0.050909486 -0.10471466 0.0016598066
0000f0 17 2e 49 bd d3 cb b4 3c 74 0c 2c bd 36 e9 c4 3b
       -0.04911622 0.022069847 -0.042004064 0.006009246
000100 35 ee 77 3d 5a 75 b3 3d 47 83 c8 3d 27 a9 02 3d
       0.060529906 0.087626174 0.09790664 0.031899597
000110 bd 2c 97 3d f1 fc aa 3d 01 7b 91 3d c8 dd 3b bd
       0.0738158 0.08349026 0.07103539 -0.045865804
000120 26 7d 00 3e b7 40 dd 3d 5d 8d dd bc 03 4a 15 3d
       0.1254774 0.10803359 -0.027044946 0.036447536
000130 fb b7 ca bc 25 69 b4 bd 6a af d5 3d fc e0 56 39
       -0.024745932 -0.08809117 0.10433848 0.00020492444
000140 17 9b 2a bd ae 9d f0 bc 56 6b be 3d bf 5d 06 3d
       -0.04165181 -0.029372063 0.092978165 0.032804247
000150 50 50 55 3d dd 92 d2 3c 7e 0d c6 bc a7 05 0d 3d
       0.052078545 0.025704795 -0.024176355 0.03442922
000160 a5 37 d9 bc 5e ce 23 bc 43 f5 82 bb e7 e7 81 3c
       -0.026515791 -0.009997932 -0.0039965226 0.01585765
000170 8d 4b fe 3d fb b9 d7 3d 00 8d cf 3d 45 4f a3 3c
       0.12416754 0.1053352 0.101343155 0.01993526
000180 4d 85 98 3d 61 a4 cf 3d a8 04 82 3d 52 ae 87 bd
       0.074473 0.10138775 0.06348544 -0.06625046
000190 f7 13 5b 3d 55 57 99 3c 89 e0 93 3d 16 a2 d5 3c
       0.053485837 0.018718401 0.07220561 0.026078265
0001a0 80 a9 1c 3b 1a 8f fc 3c 88 55 ce ba c0 5e 27 3d
       0.002390474 0.030829955 -0.0015742043 0.040861845
0001b0 77 44 24 bc ab 18 8d 3d 94 87 aa 3d b0 b1 19 3d
       -0.010026089 0.06889471 0.08326641 0.03752297
0001c0 17 08 51 3d 99 8b d6 bc a8 07 89 3d 78 4f aa bd
       0.051033106 -0.026189612 0.066909134 -0.08315939
0001d0 aa be 01 bd eb 27 01 bd ba 66 cc 3d 28 ec 83 3c
       -0.031675972 -0.03153221 0.09980531 0.016103819
0001e0 de 2b de b9 f9 4b e0 3d ac 6c 2a 3d da 4b 3b 3d
       -0.00042375823 0.10951991 0.041607544 0.045726635
0001f0 17 cf 7b 3c 83 a8 15 3d cc 54 39 3d 52 5f 33 3c
       0.015369198 0.03653766 0.045246884 0.010948019
000200 fe 15 bf 3c d3 55 bb 3d da 44 a9 3c 13 f2 66 3d
       0.023325916 0.09147229 0.020662714 0.056383204
000210 8f 89 c0 b9 d7 db d7 3d 7a e7 32 3d fa 58 29 3d
       -0.00036723583 0.10539978 0.043677785 0.04134462
000220 87 cc 14 ba 4b a3 42 3d 44 36 1d 3d fe 5a 0a 3c
       -0.0005676229 0.04751901 0.03838183 0.008444546
000230 8b 5a 90 3c 9c 07 e0 3d 47 d2 b1 3d f0 7b 45 3c
       0.0176213 0.109389514 0.08682685 0.012053475
000240 57 d2 75 3d 83 62 41 3d 0e 0a 52 3d 94 c0 d1 3d
       0.06001505 0.04721309 0.05127912 0.102418095
000250 7c 8d 16 3d 07 f1 d7 3c 4f 87 d7 3c fa 20 a8 3c
       0.036756024 0.026360048 0.026309637 0.020523537
000260 f9 ef 35 3d ff 41 77 3d a6 6b d5 bd 67 ea 20 bd
       0.04441831 0.060365673 -0.10420923 -0.039286043
000270 af c5 95 bd d1 92 d6 bd 72 da 44 bc 72 1c 50 bd
       -0.07313096 -0.10477222 -0.012014972 -0.050808378
000280 5f 9a 6a bd af 46 87 bd d3 a1 88 3c 75 97 d0 3d
       -0.057276126 -0.06605279 0.016678726 0.10185138
000290 7e 87 d3 3d f8 7a 49 3d 73 92 f8 bb 58 03 10 bd
       0.103285775 0.049189538 -0.0075858175 -0.03515944
0002a0 d4 d5 8b 3c 76 cf 01 be 14 af 48 bb 07 49 a1 bd
       0.017069735 -0.12676796 -0.0030621933 -0.07875257
0002b0 66 21 26 3d 97 d4 8b 3d 62 d2 28 3d 1f fc d3 3d
       0.040559195 0.06827658 0.04121626 0.10350823
0002c0 3c 08 9e bc a8 86 cf 3d b0 44 53 bc ff 99 35 bd
       -0.019291036 0.101331055 -0.012894794 -0.044336315
0002d0 37 45 90 3d d0 dd 1b bd 31 28 4a bd f1 e4 65 bc
       0.07044452 -0.038053334 -0.049354736 -0.014031635
0002e0 60 32 93 bd d6 e6 ac bd 9c 4a 4f bd f8 84 96 bd
       -0.07187343 -0.08442466 -0.050608262 -0.073495805
0002f0 77 9b ac bc 23 aa 1e 3c 4c 8e fb bc fc d3 c9 3d
       -0.021070225 0.009684118 -0.0307075 0.09854886
000300 1d 86 48 3c 95 b2 f8 bb d1 b6 8f 3d 09 b1 d9 3d
       0.012239006 -0.007589648 0.07017291 0.1062947
000310 38 8a ab 3d 81 c1 9e 3d 9a 1d a1 3d 7b d7 00 be
       0.083759725 0.07751752 0.07866974 -0.125822
000320 4f bb 99 3c ad 44 e0 bd 9e d3 a6 bd bf 26 38 3d
       0.018766074 -0.10950599 -0.081458315 0.044958826
000330 ac b9 a0 bd 97 ca 3f 3d 36 45 e7 3c 20 6e 1f bc
       -0.07847914 0.046824064 0.028231245 -0.009730846
000340 6d 53 66 3d 7c 74 30 bd 25 29 5e 3d a2 ae 16 3c
       0.056231905 -0.04307984 0.054238457 0.009196909
000350 08 1b 4e bd 74 de c8 3c 80 12 b3 3c 05 69 ea bb
       -0.050318748 0.024520136 0.021859407 -0.0071536326
000360 70 b9 f1 bd 74 e8 ce 3d 93 4e f3 3d c2 f0 0b 3d
       -0.118029475 0.10102931 0.11880221 0.03416515
000370 a7 a4 9b 3d 66 12 19 3d 0a 9e e0 3b 26 ea 31 3c
       0.07599764 0.03737106 0.006854777 0.010859048
000380 bb 01 fe 3c d4 58 6e 3c 06 55 b8 bc c2 e1 2d bd
       0.031006685 0.014547545 -0.02250148 -0.042451628
000390 0d 3b 35 bd e5 2d ae bd 3b 08 aa bd a9 1c ad 3c
       -0.04424577 -0.085048474 -0.08302351 0.02113183
0003a0 ed 47 f8 bc 02 97 20 bc 92 57 61 3c 76 68 64 bd
       -0.030307734 -0.009801628 0.013753789 -0.055763684
0003b0 d6 03 a7 bd 48 bf 54 3d ad a2 ed bd 5c b5 a2 bd
       -0.081550285 0.051940233 -0.116032936 -0.07944748
0003c0 e0 14 8c bd db cb 33 bd f2 1c 84 3c 43 eb 47 bd
       -0.06839919 -0.043895584 0.016127083 -0.048808347
0003d0 76 63 c8 bd a1 71 8f bd 10 02 26 3d 3c 8e 92 bd
       -0.09784596 -0.07004095 0.04052931 -0.07156035
0003e0 4a f7 1c 3d 95 ad f9 bc ac ec 32 bd f7 41 7a bd
       0.03832177 -0.030478278 -0.04368274 -0.061098065
0003f0 16 f0 11 3d 69 35 92 3d e8 60 8d bc e2 98 4b 3d
       0.035629354 0.071390934 -0.017258123 0.049706347

bias f4 [64]
000000 1a 66 ec 3c ec be 1a 3c 39 f1 6b 3d fd 8b 72 3d
       0.02885728 0.009444933 0.057603095 0.059215534
000010 09 9c 37 3d cb b5 15 bd ab e5 f0 bc 37 7d b4 bc
       0.04482654 -0.036550324 -0.02940639 -0.022032363
000020 a8 44 d8 3d cc a6 f3 bc ab ee ba bc 79 1a 1e 3b
       0.1055997 -0.02974262 -0.022818884 0.0024124666
000030 be fc c1 bb 37 5b 3c 3d 53 a0 6f bd df bd 3c bd
       -0.005920022 0.045985427 -0.058502506 -0.046079513
000040 1b 28 27 3d c5 19 f3 bb 24 9a 4b bd bc 6a c3 3b
       0.040809732 -0.0074188435 -0.049707547 0.0059636515
000050 a8 b7 3f 3c 63 38 0a bd bd 4b 67 bd b1 1a 8e bb
       0.011701502 -0.03374518 -0.056468714 -0.004336678
000060 5f b7 98 3d 96 8e 6f bd b0 c5 00 bd b2 b5 92 3d
       0.0745685 -0.05848559 -0.03143853 0.07163562
000070 68 38 2d bd 71 61 c2 3c f6 43 49 bd e3 79 b8 3d
       -0.04229012 0.023728104 -0.04913708 0.09007623
000080 42 d7 2c 3b 8c 38 d9 3c 82 56 37 3d b2 e7 43 3d
       0.002637342 0.026516221 0.044760235 0.047828384
000090 6f 5d c0 3c 89 b7 76 3c 89 f0 15 3c 28 10 86 bd
       0.023482053 0.015058407 0.009151586 -0.0654605
0000a0 2c 04 50 bc bc 34 77 bd 8b db 29 3d 83 8c 10 3d
       -0.012696307 -0.060353026 0.041469138 0.035290252
0000b0 63 95 28 bc fe 69 f1 bc 4d af 5c bc e7 94 0c bd
       -0.010289523 -0.029469486 -0.013469529 -0.03432169
0000c0 ac 9d 51 3d b5 2b 29 bd 3f 4b 9f bc cf d2 0e 3d
       0.05117576 -0.041301448 -0.01944506 0.03486901
0000d0 92 81 3a bd a2 14 b1 3d a9 cf a7 3d dd 7f bd 3d
       -0.045533724 0.086465135 0.08193905 0.092529036
0000e0 11 07 0d 3d ae f6 87 bd d2 93 f3 3c 03 1b fa 3c
       0.034430567 -0.06638847 0.029733572 0.030530458
0000f0 6a 99 f0 bc 92 8a 13 3d c9 1e 4b bd 3c ba 1f bd
       -0.029370029 0.036020823 -0.049589906 -0.038995966

weight f4 [10, 1600]
000000 a1 b1 a9 bc 70 91 fe bc 79 f7 81 3c c8 cf a6 3c
       -0.020714583 -0.03107521 0.015865074 0.02036275
000010 b9 8e 2d 3b 4c db 22 bb 1f 92 01 3d bd 4d e1 3c
       0.0026482774 -0.002484995 0.031633493 0.027502889
000020 81 b0 4e bc e9 ff e9 3c d3 16 57 3c 4c 70 48 3d
       -0.012615324 0.02856441 0.013128 0.04893522
000030 d4 2d 78 bd 5e 1d 7a bd 42 5a 5c 3d 92 e8 0d 3d
       -0.06059058 -0.061063163 0.053797014 0.034645624
000040 49 2b 7b 3c 1b 02 25 bd 04 8c a7 bb 1f d9 53 3d
       0.015330144 -0.04028521 -0.0051131267 0.051720735
000050 39 92 11 3d 65 e0 4f 3c 35 d0 8a 3c 14 7a 88 3d
       0.03553984 0.012687777 0.016944984 0.066639096
000060 79 7c 1e bc e5 69 9d bc d8 9a 6f bd 38 e1 63 bb
       -0.009673231 -0.019215534 -0.05849728 -0.0034771692
000070 91 59 51 3d 7b 69 ee 3c 53 3b 8c 3c 3f 57 ed 3c
       0.051110808 0.029103031 0.017118132 0.028972266
000080 28 3d 78 3c 81 8c 06 3c 56 5a bf 3c c8 42 c9 3c
       0.0151513 0.00821221 0.023358505 0.024567977
000090 e6 34 f3 bb ce 1b 68 bd 53 ab 8a bd 63 88 34 3c
       -0.0074220775 -0.05666714 -0.06770959 0.011018845
0000a0 57 70 2c 3b 63 07 18 3c 98 c3 5f bd db 0e 2f bd
       0.0026312077 0.009279105 -0.054629892 -0.042738777
0000b0 b7 46 79 bc 29 da 7d 3c c4 b8 23 3d 80 f8 b7 3c
       -0.015214614 0.015493908 0.039971128 0.022457361
0000c0 40 c7 09 3c b3 1a 44 3c ab 9d bf 3c 95 a1 86 bc
       0.008409321 0.011969256 0.023390612 -0.01643447
0000d0 de 6f 22 3b 31 17 37 3c 30 de a1 3c b4 9d f6 3a
       0.0024785916 0.011174963 0.019759268 0.001881531
0000e0 45 8d 4f bc 41 c8 12 bb 52 87 87 bd 6e 50 f7 bc
       -0.012667959 -0.0022397193 -0.06617607 -0.030189719
0000f0 5a ef 9b 3b a7 92 61 bd 0d 38 90 bd 76 34 c0 bd
       0.0047587575 -0.0550715 -0.07041941 -0.09385006
000100 a1 6b 9f bd c0 97 55 bd 55 d7 00 bc 84 6e e9 3b
       -0.077842005 -0.052146673 -0.007863839 0.00712377
000110 12 db 30 3c 3d 3a 18 bc 6d da 0b bd 74 7f 93 bc
       0.010794418 -0.009291229 -0.034143854 -0.01800511
000120 0d 31 15 3d 49 29 9d 3b ec 24 c4 bc f6 5f 0a bd
       0.03642373 0.0047961813 -0.023943387 -0.03378292
000130 c3 f2 88 bd 1d 1b fd 3c 76 60 3d 3d fa 9f 7b 3c
       -0.06686928 0.030896718 0.04623457 0.015357966
000140 af d9 8c 3b 39 37 64 3d b5 f8 ea 3c c5 5e 41 3d
       0.004298411 0.055716727 0.028683046 0.04720952
000150 ba 73 f2 3c 6f a6 29 3d de 52 d0 3c 54 52 1c bd
       0.029596198 0.04141849 0.02543014 -0.03816445
000160 5b 20 8c bd 7b 12 2f 3d 8a e5 24 3d 55 2b 9d 3c
       -0.06842109 0.042742234 0.040257968 0.019185701
000170 89 27 aa bd 06 b7 ab bc 4c 6d 2b 3d 0a fd 66 3c
       -0.08308322 -0.020961296 0.04185228 0.014098415
000180 3c 70 77 bb d6 9c 41 3c 14 e4 c8 3c f2 e4 81 3c
       -0.0037756106 0.011817178 0.024522819 0.01585624
000190 f7 6d c1 bb f7 12 47 bd 6a eb 88 bb 45 88 44 3d
       -0.0059030014 -0.04860207 -0.004178454 0.04798152
0001a0 4b 48 1e 3c 49 75 35 3c e2 6a 2b bb 86 ba d9 3c
       0.009660791 0.011075326 -0.0026156236 0.0265782
0001b0 82 14 3f 3d 1e d1 33 3c 95 a9 3a 3d 26 4b 45 3d
       0.046650417 0.01097515 0.045571882 0.04816737
0001c0 d5 2f 19 bd d9 5c 89 bd ed bf 0a 3c 2f f3 85 3b
       -0.03739913 -0.067071624 0.00846861 0.0040878276
0001d0 d1 c1 38 3d 06 62 62 bd 20 7b f3 bc 1b 3d a3 3c
       0.045106713 -0.055269264 -0.029721797 0.019926598
0001e0 bd 3a 64 3c 84 d9 bc 3c d6 bf 87 bc 26 41 46 3d
       0.01393002 0.023052938 -0.016570967 0.048401974
0001f0 e6 ba 26 3a 88 07 19 bc e9 c8 7e bd c4 fc d0 bc
       0.00063602475 -0.0093401745 -0.06220332 -0.025511153
000200 b4 53 dd 3c a5 b3 27 bd 91 13 2a 3c 31 04 ba 3a
       0.027017452 -0.040942807 0.010380642 0.0014191923
000210 c8 8b d6 3c b8 4c 4a 3d e3 54 8b bb d0 72 29 bb
       0.0261897 0.04938957 -0.0042520626 -0.0025855787
000220 c3 d7 88 bc f6 0c e7 bc 54 15 bb bc 4c 2f d9 3c
       -0.016704446 -0.028204422 -0.022837318 0.02651181
000230 50 30 b9 bc 45 c2 b7 bc 72 36 05 bd 3c ca 13 3c
       -0.022606045 -0.022431502 -0.032522626 0.009020384
000240 9e 19 92 bb ac b8 a5 bc a8 3a e2 bc 98 8e 8d 3b
       -0.00445862 -0.02022966 -0.02761586 0.004319977
000250 a0 d8 8e 3b e3 1b 4f bc 26 23 c8 bb 0f 7a d8 3a
       0.00435932 -0.012640926 -0.0061077056 0.0016515868
000260 45 47 48 3d ca b5 8d 3c ba 35 48 bc 09 9b 03 3d
       0.048896093 0.017298598 -0.012219841 0.032130275
000270 90 e7 9b 3c ee 1e 14 3d 2c ec c4 bb 91 8b 19 3c
       0.019031316 0.03616231 -0.006009599 0.009371654
000280 7f 72 aa 3a c5 b2 2b 3c a0 fb bc bd 83 09 3d 3d
       0.0013004093 0.010479634 -0.09227681 0.04615165
000290 c3 59 b1 3d c3 d4 bd 3c ee be 23 3c f7 87 39 bc
       0.08659699 0.023172742 0.009994252 -0.01132392
0002a0 8a 5c bb 3d 70 00 0b 3d 8f b4 85 3b de 87 bd 3c
       0.0914851 0.033935964 0.004080362 0.023136076
0002b0 cb 47 86 3c 35 f2 f8 3c a4 16 a1 3b b8 d5 b9 3c
       0.016391655 0.03038893 0.004916029 0.022684917
0002c0 4f 2a 80 bc 67 66 bf 3a f0 17 21 bc 11 17 02 bc
       -0.015645174 0.0014602662 -0.009832367 -0.00794007
0002d0 ba 6c a7 3c 07 9f f8 bb 27 70 85 3c d2 97 ca 3c
       0.020437587 -0.007587317 0.01628883 0.024730597
0002e0 da 3e 55 3b 40 ff f3 bb 47 18 8d 3b 63 51 7d bc
       0.0032538683 -0.0074461997 0.0043058726 -0.015461299
0002f0 67 1b 59 bb 9c 43 5e 3c 25 4d 92 3c 0b b5 b0 bc
       -0.0033127905 0.013565924 0.017859051 -0.021570703
000300 18 13 c5 bc 78 e5 8a 3c 2b be bb 3c 40 92 0c 3c
       -0.024056956 0.016955122 0.022917828 0.008579791
000310 5f ce 81 bc ef 39 b6 3c 47 3e 29 bc 17 d9 91 bc
       -0.015845476 0.022244422 -0.0103297895 -0.017803712
000320 73 c9 93 bc 6c c5 f5 3c c7 7f 2a 3d 8f a8 4f bd
       -0.018040394 0.030001365 0.041625764 -0.05069786
000330 20 dc 43 bc 19 7f 9b 3c a6 28 83 bc ab a2 1a bd
       -0.011954337 0.018981503 -0.016010594 -0.03775279
000340 5a 00 70 bc 36 d4 48 bd 38 bc 87 bb ff 7c 40 bd
       -0.014648521 -0.049030505 -0.0041423105 -0.046994206
000350 11 4e 91 3d 9a fb 50 3d 47 06 71 bd 9a 44 e1 bc
       0.07094968 0.051021196 -0.058843877 -0.027498532
000360 d6 f0 9c bd df 07 57 3d 62 60 64 3d ac 41 d6 bc
       -0.07663123 0.05249774 0.05575598 -0.026154362
000370 66 f9 0f bd 5a a3 b5 bd 41 ed 0e bd e1 1d 81 3c
       -0.035149954 -0.088690475 -0.03489423 0.015761318
000380 ad 5d f7 3c 44 f5 52 bd 88 b3 d2 bc 34 ad 87 ba
       0.030196035 -0.051503435 -0.025720373 -0.0010351301
000390 97 4d 8a 3a 71 e5 b4 bc c0 80 93 bc 9d 3f 98 3b
       0.0010551688 -0.022082062 -0.018005729 0.004646255
0003a0 72 c5 4f 3d 88 ee 9c ba f3 d6 3e 3d bd 3a 75 3c
       0.050725408 -0.0011972943 0.04659171 0.014967618
0003b0 4b b2 89 ba d7 3c 89 bd 96 f0 3a bd 3e 6a cb 3c
       -0.0010505406 -0.067010574 -0.045639597 0.024830934
0003c0 b5 92 f0 3c 18 9b 79 bb 13 8e 4d bd a7 67 d1 bc
       0.02936683 -0.0038086828 -0.05018432 -0.02556212
0003d0 47 1e 1b 3d 81 93 d8 3c 93 f9 92 bc fc 91 ba 3c
       0.03787067 0.026437523 -0.017941272 0.022774689
0003e0 c0 73 23 3d ec 05 9f bc 62 84 2b bd 24 9d 34 bd
       0.03990531 -0.019412003 -0.041874297 -0.044095173
0003f0 c0 0d d6 3c 85 71 58 3d 62 87 48 3c f4 ec 88 3a
       0.026129603 0.052842636 0.012239309 0.0010446594

bias f4 [10]
000000 57 cd f4 b9 f6 b9 6f 3c 8f 87 84 bc 8c dd 6f 3c
       -0.00046692297 0.014631739 -0.01617792 0.014640223
000010 68 04 83 3c 98 c9 b7 bc 94 ab 15 bc 4b b7 b0 3c
       0.015993312 -0.022434995 -0.009135146 0.021571776
000020 95 f6 9f 3b 28 b9 ca bc
       0.00488169 -0.024746493
