dtu_mlops_cookiecutter_example/models/model_1.pt (torch, 144520 bytes, 6 tensors)

weight f4 [32, 1, 3, 3]
000000 19 15 cd bd 5a b9 b2 3e b3 a3 d7 3e 72 03 02 bf
       -0.1001379 0.34907037 0.4211708 -0.5078651
000010 af 24 85 bd 9a d9 1d 3f 34 11 b1 be 95 66 c7 be
       -0.065011375 0.6166016 -0.34583437 -0.3894545
000020 77 20 95 3d 54 03 a3 3e 7b 36 36 3e 18 36 fc 3e
       0.07281583 0.31838477 0.1779422 0.4926002
000030 d6 fd 4b bd 80 08 86 3e b4 1f e0 3e a1 0e be 3d
       -0.049802624 0.2617836 0.43774188 0.09280134
000040 75 fe 02 3f 01 03 dd 3e 4b 7e 3b 3e bf 78 f5 be
       0.5116952 0.43166354 0.18309896 -0.47943684
000050 38 cb e9 be 0c 67 df be fa c9 0b 3d e2 54 17 bd
       -0.45662856 -0.43633306 0.034128167 -0.036946185
000060 bd 86 fb 3d 62 b1 a6 be 15 e2 4a be 3f 2f 2b 3e
       0.12281559 -0.32557207 -0.19812806 0.16717242
000070 ad 63 e2 3e 7a 5f cf 3e 4d 40 85 3e 91 e1 7a 3e
       0.44216672 0.4050253 0.2602562 0.2450011
000080 66 d0 87 3e c4 74 aa 3d 3a aa 60 3e 9d 32 a9 3e
       0.26526183 0.083230525 0.21939936 0.33046427
000090 1f f7 dd 3e 2d ac 09 3f c3 84 de 3e 9e 7a b0 3d
       0.433526 0.53778344 0.43460664 0.08617137
0000a0 44 5b 8d 3e 04 d6 45 3e e6 5c a5 be 34 94 02 be
       0.27608693 0.19319922 -0.32297438 -0.12751848
0000b0 3a 47 c5 3e 55 7e 93 3d d2 8b 78 3e 86 6a d1 bc
       0.38530904 0.0720183 0.24272087 -0.02556349
0000c0 78 77 bf 3e f5 92 dc 3e 8f ad 18 3e 92 b9 eb bd
       0.37395835 0.4308087 0.14909957 -0.11510004
0000d0 c0 ad db 3e 3d e6 e6 3e a8 ea e8 3e 6d 02 fb 3e
       0.42905998 0.45097533 0.4549153 0.49025288
0000e0 7a 57 95 3e ec 5e 58 bd ee f4 e2 3e 68 19 44 3f
       0.29168302 -0.0528249 0.44327492 0.76601267
0000f0 88 d2 c0 be d5 53 ca be 5e 0b 1f 3e c1 a0 e0 3e
       -0.37660623 -0.39517084 0.1553168 0.43872645
000100 48 c5 89 be 2c 03 ae be b7 f9 75 3e 20 4c 35 bd
       -0.26908326 -0.33986795 0.2402104 -0.04426205
000110 28 78 11 bf 40 80 79 be d6 ab 01 3e 1a 3c 91 be
       -0.5682397 -0.2436533 0.12663206 -0.28366166
000120 8d ea 83 3b f4 03 ec be d0 33 ad 3d 3d 00 78 be
       0.0040257634 -0.46096766 0.08457148 -0.24218841
000130 1d f0 6f be 51 69 d2 be 2a 4f 73 be 68 9b 17 be
       -0.2343144 -0.41095975 -0.23760667 -0.14805377
000140 bf c7 27 3e ef 69 87 3e ff 13 c4 3e 8a fa bd 3e
       0.16384791 0.26448008 0.38296506 0.3710521
000150 a6 f4 f2 3e d1 30 7a 3e ea 53 56 3d e9 bf 55 bc
       0.47452277 0.24432684 0.05232612 -0.013046243
000160 82 63 c3 3e 9b 0c a9 bd 30 f1 20 be 48 30 fa 3c
       0.38161856 -0.082543574 -0.15717006 0.0305406
000170 5f a1 b2 3e 63 97 4a 3e 9a 8a ee bd 0f 00 ff 3e
       0.3488874 0.19784312 -0.1164753 0.49804732
000180 72 ba be 3e 06 a2 d2 3e 89 81 ec 3e d0 d0 da be
       0.3725162 0.4113924 0.46192577 -0.42737436
000190 0a 55 af be 43 89 0a be e2 d3 44 be 2d 2e a2 be
       -0.34244567 -0.13528924 -0.19221452 -0.31675854
0001a0 80 da d3 be fb f1 fe 3d c7 43 b1 be 2f c1 d6 bd
       -0.4137764 0.12448498 -0.34622023 -0.104860656
0001b0 a9 ee d7 be 59 4f fa be 45 6e f3 bd 40 d4 94 be
       -0.4217427 -0.48888662 -0.118862666 -0.29068184
0001c0 52 a9 c7 ba 65 dd 9c be 54 70 ee be 5d c8 ef 3a
       -0.0015232957 -0.3063766 -0.46570075 0.0018293966
0001d0 e9 c2 9b 3e b7 c0 b7 3d 46 79 19 3c a4 f0 03 bf
       0.30422142 0.08972304 0.009367293 -0.51539063
0001e0 ab 04 db be 41 14 0e bf c3 1c 01 be db 09 fd be
       -0.42777 -0.55499655 -0.12608628 -0.49421582
0001f0 b2 51 20 bf 78 65 cb be b9 d8 88 3e 7e a1 f1 3e
       -0.6262466 -0.39725852 0.26727846 0.4719352
000200 93 fd 33 3f 82 dc 44 3e a8 a5 11 3f 7a e0 8a 3d
       0.703088 0.19224742 0.56893396 0.06781097
000210 d9 ee 03 3f 2a 69 5f 3d c6 42 92 3d e5 3c c2 3e
       0.5153633 0.05454365 0.07141642 0.37937084
000220 13 8f 5e be b1 cb b3 bd df b4 65 3e 76 73 dc 3e
       -0.21734266 -0.087790854 0.22432278 0.4305684
000230 bd bc 8c 3e 0d 0f 00 3f be fb d1 3e b9 87 3e 3b
       0.27487746 0.50022966 0.41012377 0.0029072596
000240 48 ce d6 be 95 a2 d3 bd 82 c8 c8 3e 0e 96 c8 be
       -0.41954255 -0.103337444 0.39215475 -0.39176983
000250 47 0a 68 3d 32 a1 e1 3e 96 7d 4c 3e 23 79 49 3d
       0.056650426 0.44068295 0.19969782 0.04918779
000260 6e 0f 99 3e 97 70 7c 3e 20 52 f8 3e 4a 92 32 3e
       0.29894584 0.24652325 0.48500156 0.17438617
000270 8e a9 7b 3e df fd 80 3e b0 7a 2a 3e 6b bc c3 3d
       0.24576399 0.25193688 0.16648364 0.09557422
000280 d6 08 a3 3c ff 4f 04 3e c8 19 e0 3e ce 2d 07 3e
       0.019901674 0.12921141 0.4376967 0.13201067
000290 0f de bf 3e 09 b8 a2 3e 31 d7 69 3d b6 bf a2 bd
       0.37474105 0.31781033 0.05708999 -0.07946722
0002a0 88 1e 1c be a4 d4 eb 3e 19 81 f5 3e 75 da 2e 3f
       -0.15246022 0.4606067 0.47950056 0.6830209
0002b0 bb 6f cc 3e 7d 01 fc 3e 1c 42 ec 3e 33 ec ea 3e
       0.39928994 0.49219885 0.46144187 0.4588333
0002c0 16 45 29 3d 9c 35 91 3e ef fa 1d bc a9 84 ea 3e
       0.04132565 0.28361213 -0.009642347 0.45804337
0002d0 59 7e 4d 3e 8b 6f e1 be 96 e7 83 be ee b0 90 3d
       0.20067729 -0.44030413 -0.25762624 0.07064997
0002e0 fa 15 49 be 0f ba 08 bf 19 03 cd be be 41 26 3d
       -0.1963729 -0.534089 -0.40041426 0.04059004
0002f0 cb 03 33 be 22 1e 8b bc 1c 5f ff be 65 83 38 be
       -0.17481916 -0.016982142 -0.4987725 -0.18018873
000300 5c 6a 99 be d1 42 ba be e6 fd 2e bb 28 79 de be
       -0.29963958 -0.36379102 -0.0026701628 -0.4345181
000310 75 09 6b be d5 e1 22 3e 5f 26 a4 3d 67 d7 ab 3d
       -0.22952826 0.1590646 0.08015131 0.08390694
000320 cb 40 f6 be 91 6b c1 bd f0 76 98 be 4f ad 2e be
       -0.48096308 -0.09444345 -0.29778242 -0.170583
000330 50 8b d9 be 04 b4 3c be 21 fe ea bd 49 d2 26 be
       -0.424891 -0.18428046 -0.114742525 -0.16291155
000340 e4 c6 91 3e 4e c8 dc bd de fa f4 3e 35 aa d4 3e
       0.28472054 -0.107803926 0.47847646 0.41536108
000350 5b 88 ef 3e e1 8d db 3e cf fe c9 3e cc c1 6a 3e
       0.46783718 0.42881683 0.39452216 0.2292549
000360 74 ff ba 3d e5 33 12 bb 17 2b 66 be c5 b0 b2 3d
       0.09130755 -0.0022308764 -0.22477375 0.08725122
000370 98 70 01 bf b5 0b d2 be 37 52 b2 3e 73 01 2f be
       -0.5056243 -0.41024557 0.3482835 -0.17090397
000380 6f 2c 0a bf 2b 93 54 3e 53 b0 dc 3e 5a b0 fa 3e
       -0.5397405 0.20759265 0.43103275 0.4896267
000390 4e e4 05 3f 93 a9 82 3e 9f f3 54 bb 10 66 9e 3e
       0.5230149 0.2552 -0.0032493842 0.30937243
0003a0 6d 7b 57 3e cc 46 e2 3d a1 6e b2 be 29 ea ea be
       0.21043177 0.1104866 -0.34850028 -0.45881775
0003b0 42 f5 be be 6e aa ce be af de 81 bc e2 59 3c 3e
       -0.37296492 -0.40364403 -0.015853254 0.18393663
0003c0 cd 8b ea 3e 8f c5 b5 3e 0d da c0 3e 48 c0 03 3e
       0.45809785 0.35502288 0.3766636 0.12866318
0003d0 63 cf de bd 1e 54 6a 3e 0c 47 1b be 37 84 36 3c
       -0.108793996 0.2288365 -0.15163821 0.011139921
0003e0 b0 1a 01 3f 5a 2c 83 3e 34 74 3c 3e 58 5e 02 3f
       0.50431347 0.25619775 0.18403703 0.5092521
0003f0 cb a8 ad 3d bc 3b 0d be 91 e0 85 3e b5 0f 10 3d
       0.0847946 -0.13792318 0.26147893 0.03517123

bias f4 [32]
000000 ed 2a 54 3d 16 f4 ab bd 18 5a 84 3e 3b bf 54 ba
       0.05179875 -0.08396165 0.25849986 -0.0008115654
000010 fa aa 78 bd 37 86 9b ba b6 de 76 bd a7 fa 41 3e
       -0.06070993 -0.0011865561 -0.060270987 0.18943273
000020 09 67 92 3e d6 93 1e 3e 26 8e 49 3d f6 ff af 3e
       0.28594235 0.15486082 0.04920783 0.3437497
000030 9c 8a ae 3e 3d 2b 3f be 38 75 3c 3a d0 42 54 ba
       0.34090126 -0.18668838 0.0007189098 -0.0008097114
000040 7c d4 08 3d 12 33 c3 ba f9 59 c1 3d 79 44 93 bd
       0.033405766 -0.001489254 0.09440989 -0.071907945
000050 8c 26 b4 3e 3a ed c9 3e 25 64 80 3e e3 e5 34 3e
       0.3518566 0.39438802 0.25076404 0.1766582
000060 f3 10 b5 be 32 db 5a 3e be e8 74 3e 46 25 4d b9
       -0.35364494 0.21372679 0.23916909 -0.00019564209
000070 bc 8c 3f ba 00 7e 0b bd 64 37 14 3e 68 8c bd 3e
       -0.0007307043 -0.03405571 0.14474255 0.37021184

weight f4 [64, 32, 3, 3]
000000 a9 a1 05 3d c7 af aa bc f5 0b a1 bc 66 18 6f bd
       0.032624874 -0.02083577 -0.019659022 -0.058372878
000010 c0 cb 0c 3c 55 de 16 bc 10 0f 98 bc bd b7 7b bd
       0.0085935 -0.0092082815 -0.01856187 -0.061454523
000020 11 d9 14 3d ff 4d c9 3c 42 85 e4 3c ce da a8 bd
       0.036339823 0.024573324 0.027895574 -0.08244859
000030 00 27 04 bd ff 3b 9a bd 0e 8e c5 bc 7e 44 d6 3c
       -0.032263756 -0.075309746 -0.024115589 0.026155706
000040 9c 1e 80 bd df 33 fa bc b3 79 4a bd 26 57 fe bc
       -0.06255838 -0.030542312 -0.049432468 -0.031047415
000050 3c e6 e6 3c 85 dd 0b bd c8 86 3c bd d1 19 b5 3c
       0.028185956 -0.034146804 -0.046026975 0.022107037
000060 b4 e6 94 bc 83 67 21 3d f5 cf 01 3d b9 a7 ca bc
       -0.018176414 0.039405357 0.031692464 -0.02473818
000070 bc 21 96 bd 54 37 82 3c f0 19 7e bd 96 d9 06 bc
       -0.07330653 0.015895523 -0.062036455 -0.0082305875
000080 70 e5 c6 3c 50 48 92 bd 29 6f 88 3c a6 72 e2 bb
       0.024279326 -0.07142699 0.016654568 -0.00691064
000090 39 b4 59 bb c6 07 d0 bc f5 0d 83 bd d3 41 b2 3b
       -0.0033218993 -0.025394332 -0.063991465 0.0054399758
0000a0 92 6c 93 3c b7 2c 07 bd 67 d2 8a bd 10 ec 0b bd
       0.017996106 -0.033001628 -0.06778412 -0.034160674
0000b0 bb 33 c4 bc 69 a6 34 bc 16 ab 85 bc b9 bb 33 bd
       -0.023950448 -0.011026003 -0.016316932 -0.0438802
0000c0 13 38 97 bd d9 32 9a bd 65 9b 24 3c 78 40 97 bd
       -0.07383742 -0.0752923 0.010046815 -0.07385343
0000d0 4f 35 00 3c 16 95 9f bc dd 79 16 3c 52 00 70 bd
       0.00782521 -0.01948027 0.009184328 -0.058594055
0000e0 2b a4 48 bd a9 70 96 ba 0b 6e 6a bd bd 9f 9c bd
       -0.048984688 -0.0011477667 -0.05723385 -0.07647655
0000f0 ad d3 ca bc 41 66 f6 3c aa 4c 2e bc 86 74 8f 3b
       -0.024759138 0.030078055 -0.010638395 0.0043779043
000100 d5 e9 0c bd 5b b7 9a bd 10 50 78 bb 87 b1 79 3c
       -0.034402687 -0.075545035 -0.0037889518 0.01524008
000110 00 4e 96 3b e1 c8 09 3d a3 d6 4c bd 1c f6 88 bd
       0.004586935 0.03363884 -0.05000938 -0.06687567
000120 f5 0a 4a bb cd 82 22 bd be b2 2e bd 4c 0c 32 bd
       -0.0030829285 -0.039675523 -0.04265093 -0.04346876
000130 4f 7a 80 3b 0a 71 d8 3c 12 92 72 bd c0 69 1e 3d
       0.0039208303 0.026421089 -0.059221335 0.03867507
000140 d4 6a 8d bd a6 d7 79 3c 3d 97 a7 3c a8 57 1a bd
       -0.069051415 0.0152491685 0.020457858 -0.03768125
000150 67 79 97 bd 06 d1 9c bd 64 32 21 bd fa 36 61 bd
       -0.073962025 -0.076570556 -0.039354697 -0.05498407
000160 c7 41 7e bb d2 83 0f bc 6c 07 00 3d df ac 13 bd
       -0.003879653 -0.008759456 0.031257078 -0.036053535
000170 81 b8 0c bd d8 a4 5a bd 28 4f d2 bc 97 a9 c5 3c
       -0.034355644 -0.053379864 -0.02567251 0.024128718
000180 f9 46 72 bd a9 5e f1 bc c1 1b 8d bd 62 33 13 bd
       -0.059149716 -0.029464083 -0.06890059 -0.035937674
000190 fd f5 e1 bc c2 3f 99 bd 03 55 e3 3c 19 84 46 bd
       -0.027583117 -0.07482864 0.027750498 -0.048465822
0001a0 94 a0 9b bd ed 4e 36 bc 59 e9 91 3c f9 a3 a3 bd
       -0.07598987 -0.011127216 0.017811464 -0.0799026
0001b0 dd 42 4a bc a5 20 f3 3b de 88 4d bd 53 8a 00 3d
       -0.012345043 0.007419663 -0.050179355 0.031381916
0001c0 7e 17 72 bc 65 38 f7 3c ed 73 77 bd f3 83 a7 bb
       -0.014776109 0.030178258 -0.06041329 -0.005112165
0001d0 27 bc 29 bd 73 eb 17 bc 9b 04 cf bc 95 7a b4 3a
       -0.0414392 -0.009272444 -0.02527075 0.0013769442
0001e0 7d ee 42 3d b1 bf 2c 3c cf 54 68 3d 22 f3 70 3d
       0.04759072 0.01054375 0.056721505 0.05882562
0001f0 7d c3 23 bd 19 b0 0e 3c 3b 1d 9b bd 28 34 94 bd
       -0.039981354 0.008708977 -0.07573935 -0.072365105
000200 3a 04 74 bc d9 da f8 3b fa 97 88 3c 11 11 d0 ba
       -0.014893586 0.007594448 0.01667403 -0.0015874227
000210 95 23 23 bd e9 23 83 bc bf df 93 bc 89 a0 42 3c
       -0.039828856 -0.016008334 -0.018051026 0.011879095
000220 3b f0 48 bd 4a 01 6b bd a5 6e d0 ba e4 c0 61 3c
       -0.049057227 -0.057374276 -0.0015902115 0.013778899
000230 45 21 5e bd 33 b3 0b 3d af 20 fb 3c a5 fd 1a 3d
       -0.054230947 0.034106445 0.030655233 0.03783955
000240 cd d0 ff bc 7c 49 90 bc 93 2e a9 bc b8 f2 72 bd
       -0.031227494 -0.017613165 -0.020652091 -0.059313506
000250 99 51 2d bd 46 2d 3c bd 1b 13 4d 3c 0f 08 d2 3c
       -0.042314146 -0.045941614 0.012516762 0.025638608
000260 6e 0c af bc 1c 99 99 3c 15 68 d8 3c 2d 4e e9 bc
       -0.021368232 0.018749766 0.026416818 -0.02847966
000270 6b 8d 3e bd 6e f2 0f bd c7 b6 40 bd e6 36 d0 3c
       -0.046521585 -0.03514331 -0.04704931 0.025416803
000280 78 e4 02 3c 91 1c 95 bc 96 8f f2 bc 97 5a 31 bd
       0.0079890415 -0.018202098 -0.029609483 -0.043299284
000290 aa a1 0e bd e5 c3 14 bd f0 ef 99 bd 6a c3 52 bd
       -0.034822144 -0.036319632 -0.075164676 -0.051455893
0002a0 e6 fc 21 3d d0 95 99 bd 94 42 1e 3d 90 50 9a bd
       0.039547823 -0.074992776 0.038637713 -0.07534897
0002b0 f7 e8 68 bd 17 19 9d bd 13 d2 71 3b 1d 6a 87 3c
       -0.056862798 -0.07670801 0.0036898896 0.016530091
0002c0 59 cc 85 bd d3 0c 8e bb 65 65 e8 3c 7d a7 e9 3c
       -0.06533117 -0.004335025 0.028368661 0.028522247
0002d0 10 54 bc 38 1c 24 22 3c 5b c9 16 bb d2 e5 20 bd
       8.9801964e-05 0.009896304 -0.00230082 -0.039281674
0002e0 2c 66 27 3d 56 18 88 bd 72 94 09 bd 37 69 1a bd
       0.040868923 -0.06645267 -0.033588834 -0.037697997
0002f0 da 2b 47 bd 5b 27 91 bd d4 e5 86 bd 89 8b 1c 3d
       -0.048625804 -0.070875846 -0.06586805 0.03821901
000300 84 f4 51 bd b4 62 70 bc 25 92 89 bd 54 40 04 bd
       -0.05125858 -0.01467197 -0.06717328 -0.03228791
000310 ec 62 3f 3c 72 f8 09 bd a2 2f de bc 19 6c ef 3c
       0.0116813 -0.0336842 -0.027122322 0.02922635
000320 1c 78 15 bd 58 fc af bc 4d c8 0e bd 4b ff ee bc
       -0.0364915 -0.021482632 -0.03485899 -0.029174468
000330 5b 05 9c bd 48 62 00 3c 3f bd 49 3c 3b 61 20 bd
       -0.07618209 0.007835932 0.012313186 -0.039155226
000340 46 c4 8d bd fa 41 77 bc 6b 49 b7 bc 7f c5 8c 3c
       -0.06922202 -0.015091414 -0.022373876 0.017184017
000350 b8 b0 c2 3c 81 62 61 3a 7d c0 ee bc f9 c3 a9 3b
       0.023765907 0.0008597747 -0.02914452 0.0051808325
000360 7c d6 3c 3b 20 f5 17 3b f6 78 9a 3d 21 84 c6 bb
       0.0028814366 0.0023186877 0.07542603 -0.0060582315
000370 d4 c0 fd bc 44 1e 02 3d e8 97 24 3d 2e 97 0b 3c
       -0.030975737 0.031767145 0.04018393 0.008519931
000380 a9 40 bc bc 8e 2a 7e bd 63 de b7 3b 49 37 8b bd
       -0.022980051 -0.062052302 0.0056112274 -0.06797654
000390 15 7a ba 3c ae a0 87 bd 75 c1 95 bd 44 52 91 bd
       0.022763291 -0.06622444 -0.073122896 -0.07095769
0003a0 20 19 86 bd b5 f3 4b bd 79 d6 4f bd 5a cd c9 3c
       -0.06547761 -0.049792964 -0.050741646 0.024634052
0003b0 3f fb ca bc 3a d2 6e bd 1a 94 75 bd e2 e2 90 bc
       -0.024778007 -0.058305956 -0.059955694 -0.017686311
0003c0 1d 68 8f 3c 46 98 85 bd a0 48 55 bd 77 fe 68 bc
       0.0175057 -0.065231845 -0.052071214 -0.014220825
0003d0 62 19 22 bd 2c 21 8b bd d8 64 e8 3c f8 50 63 bd
       -0.03957499 -0.067934364 0.028368399 -0.05549714
0003e0 7e 7a 84 3c c5 2e 00 bd 0d 9c 35 bd ae e0 87 bd
       0.01617169 -0.031294603 -0.044338275 -0.06634651
0003f0 23 7c 6a 3c a4 d7 82 3c 13 9a 7f bc 00 34 02 bc
       0.014311823 0.015971966 -0.015600699 -0.007946968

bias f4 [64]
000000 03 50 26 3c fe e0 86 3d 05 cd 5d bd 4f b7 79 bc
       0.010150912 0.065858826 -0.0541506 -0.015241458
000010 20 b2 b1 3c 2c f0 af 3c 17 3b 3a bb fc 74 7f 3b
       0.021691382 0.021476828 -0.0028416568 0.003897964
000020 33 3a b9 3d 66 3d 88 bd 7b 74 a9 3d 94 ef c4 bd
       0.09044304 -0.06652336 0.0827417 -0.096160084
000030 cb 6c 8b bd a8 28 46 3d fc 4a d4 3c 11 c5 f7 3c
       -0.0680786 0.048378617 0.025914662 0.030245336
000040 a4 16 35 bd c6 4c b6 3b 03 e3 18 3d e1 03 22 bd
       -0.044211045 0.0055633513 0.03732587 -0.03955448
000050 f6 84 84 3c 7b de c1 3c 9e 98 b1 bc 8c cf b3 3d
       0.016176682 0.023665657 -0.021679219 0.08779821
000060 ef 10 67 3c 67 48 f1 bb fb 70 97 3b c7 76 68 3c
       0.014103158 -0.0073633674 0.0046216226 0.014188475
000070 f0 a7 0e 3c a0 bd 36 3d 97 96 0c bd d3 f4 d7 3c
       0.008707032 0.044614434 -0.0343233 0.026361858
000080 34 32 ec 3c a9 e1 33 bd d0 ce 24 3d b7 e7 8b bd
       0.028832532 -0.04391638 0.040236294 -0.068313055
000090 94 c3 2c 3c 7c 6d 09 bc a5 9c 3d bd b0 72 b3 bc
       0.010544676 -0.0083879195 -0.046291966 -0.021905273
0000a0 2b 22 85 bd 10 2c 8f bd b5 61 27 bd a8 db 04 bd
       -0.06500658 -0.06990826 -0.040864665 -0.032436043
0000b0 9c e6 7a 3d b3 a8 e9 3c 29 8a 1c 3d 3d 59 50 bd
       0.061255082 0.028522825 0.038217697 -0.050866354
0000c0 0e 69 c5 3d 7f 8a 95 3d 32 74 ef 3d 7b 1b b9 3c
       0.09639178 0.07301807 0.11692084 0.022596112
0000d0 3b 40 ad 3d 6d 4e ee 3c e9 c3 1d bd 11 3b d9 bd
       0.084595166 0.02909013 -0.038516913 -0.10606969
0000e0 a4 a0 ca bb 32 9b 16 bd 30 82 a9 bb de 0e 02 3d
       -0.0061837006 -0.0367691 -0.0051729903 0.03175246
0000f0 7d 98 db 3b 9d 35 9e bd 16 80 dc 3c 9a a0 00 bc
       0.0067015276 -0.0772507 0.026916545 -0.00785079

weight f4 [10, 1600]
000000 19 26 d0 bc 72 ab e3 bc 6b 34 dd bb 9c d4 e2 bc
       -0.025408791 -0.027791712 -0.0067506335 -0.02768927
000010 2c 32 dc bc ff e8 07 bd 2b a9 1a 3c e2 86 45 bd
       -0.026879393 -0.033181187 0.009439747 -0.048224337
000020 1f 42 fc 3c 09 54 d5 3c db e5 76 bc 00 a0 fd bc
       0.030793248 0.026041048 -0.01506945 -0.030960083
000030 09 40 a2 3c e6 8d 96 bc d4 1a 17 3c a2 83 2e 3c
       0.019805925 -0.01837821 0.009222705 0.010651501
000040 6b d5 2a 3d fd 96 0e 3c 44 b9 f1 3b f4 e2 0f bd
       0.041707437 0.008702991 0.0073768217 -0.03512855
000050 30 77 4b 3c bc 58 0f 3d 16 c3 41 bd de 04 95 bb
       0.012418553 0.034996733 -0.04730519 -0.0045476994
000060 e7 30 14 bd 2f 14 03 3d 0b 19 49 3c 53 7b 7f bd
       -0.03617945 0.03200167 0.012274037 -0.06237347
000070 d8 76 98 ba 38 5d 99 3c 77 d7 57 3d ff a0 41 bc
       -0.0011632098 0.018721208 0.052695718 -0.01181817
000080 05 f3 54 bd 07 64 3e bc 1e 3c a1 3b 47 d6 b4 3b
       -0.051989574 -0.011620528 0.0049204966 0.005518708
000090 9c 32 6b 3d 88 7d b7 bd 50 b1 aa 3c 0e 1f 13 bd
       0.05742131 -0.0895949 0.020836502 -0.035918288
0000a0 be 97 58 3b c2 59 ab 3d ab 45 4e bc 60 eb 67 3d
       0.003304943 0.08366729 -0.012589852 0.056620955
0000b0 84 19 2c 3d 57 20 e5 bc ee 2f 8d bd e0 c0 10 be
       0.04201652 -0.027969522 -0.068939075 -0.14136076
0000c0 93 9f d9 bb 4d 06 36 bc 94 1e 24 b9 94 f8 bd 3b
       -0.006641337 -0.011109901 -0.0001565165 0.005797455
0000d0 fe b9 bc 3c ab 5a e0 3c b2 60 3c 3d 0a 23 bb bc
       0.023037907 0.027386984 0.045990653 -0.022843856
0000e0 5d 0b d1 3c 15 fa 1a 3d 0b 43 0d 3d 05 ad 27 3d
       0.025518114 0.037836153 0.034487765 0.04093649
0000f0 5c ff d6 3b 50 0b 12 3d 22 a7 cd 39 9c 49 f2 bc
       0.006561203 0.03565532 0.0003922517 -0.029576115
000100 8b 6b a8 3c dd 6e 04 bc ae 94 43 3d e9 1d 12 3b
       0.020559093 -0.0080830725 0.047749214 0.002229566
000110 48 7f a0 bd 9b 84 d3 3b 8b a7 81 3d 6f 96 76 3c
       -0.07836777 0.006455017 0.063307844 0.015050515
000120 53 2d 13 3d fd 39 1e 3d 46 c4 95 3a b8 b4 97 bc
       0.035931896 0.03862952 0.0011426292 -0.01851879
000130 ec 7c 80 3b ad 32 cd bb eb 85 be bc c0 b9 cb bb
       0.003921142 -0.0062621445 -0.023257216 -0.0062172115
000140 1c 81 c8 3c ca 2f c8 3a 50 9b 8b ba c7 37 05 3c
       0.024475627 0.0015273031 -0.0010651145 0.008130974
000150 0e 3e e0 bc 8e 85 5f bc c9 96 07 3c 3c a8 d7 ba
       -0.02737334 -0.013642682 0.008275696 -0.0016453336
000160 4a cc 96 bc 29 de 25 bb 0d b9 4e 3c 2c 7a b6 bb
       -0.01840796 -0.002530942 0.012617362 -0.0055687632
000170 90 45 90 3c b7 1c 99 3c 4c 66 68 3c f2 49 61 3c
       0.017611295 0.01869045 0.014184546 0.01375054
000180 4e aa 73 bc 92 11 85 3c 55 b9 96 bb c7 0d b2 bb
       -0.014872147 0.01624373 -0.00459973 -0.0054337713
000190 42 f4 d5 bc 01 47 f8 bc 9a 55 a5 3c ec c1 6c bb
       -0.026117448 -0.030307295 0.02018242 -0.0036126329
0001a0 74 c2 ec 3c 34 d1 be b9 48 a0 d8 bc 3a 38 99 bc
       0.028901316 -0.00036395492 -0.026443616 -0.018703569
0001b0 29 32 97 3c 98 f4 43 bc 65 37 74 3c d7 46 64 3c
       0.018456535 -0.011960171 0.014905785 0.013932905
0001c0 47 b8 b2 3b 5b c8 46 3c 00 1e 9f 3b 88 f0 26 bb
       0.0054540965 0.012132729 0.004855871 -0.0025472958
0001d0 c1 6d cd bc b9 21 3a bc 1b e9 3d bb 4c e2 ef bc
       -0.025076749 -0.011360579 -0.0028978053 -0.029282711
0001e0 57 94 28 bc c3 f6 b0 3b 8d 84 a7 3c 43 71 01 bd
       -0.010289273 0.00540051 0.020448947 -0.031602155
0001f0 56 ad 7b bc e2 63 c1 bc 5e fa 32 bb 6b 34 65 3c
       -0.015361151 -0.023607198 -0.0027309875 0.013989548
000200 f5 b2 3d bc 2e 05 1a bd 24 f0 b4 3b a0 f4 b7 3a
       -0.011578311 -0.037602596 0.005521791 0.0014034696
000210 70 9d 1c 3d 29 87 27 bc ef 92 cf bc fe a0 8f 3d
       0.03823608 -0.010225096 -0.025338618 0.07013129
000220 e7 07 c5 3c 39 3c 1b 3c 30 50 d8 bd c7 04 bf 3a
       0.02405162 0.009474807 -0.105621696 0.0014573567
000230 9c 7e 49 bc be 4f 53 3d b4 d4 4e bd ef 1f 64 3c
       -0.012298252 0.05158972 -0.05049582 0.013923629
000240 b3 7c 26 3d 05 2e 11 bd 0e d5 10 bd 71 a7 90 3c
       0.040646266 -0.03544428 -0.035359435 0.017657967
000250 b0 3b 26 3d cc ab 02 3d 9d 5d d2 3c f7 49 0e 3c
       0.040584266 0.03190212 0.025679404 0.008684627
000260 b1 4d 94 bd 90 58 92 bc 18 d6 94 3c 36 ff b2 bb
       -0.07241381 -0.017864496 0.018168494 -0.0054625524
000270 0a b3 0c 3d 03 30 a8 3b 02 24 f5 bc a1 1a 99 bc
       0.034350432 0.0051326766 -0.029924396 -0.018689455
000280 07 dd d1 3c 02 93 4d bc ce 5a 1b 3d 29 59 13 bd
       0.02561809 -0.012547256 0.037928395 -0.0359737
000290 31 9c 30 bd 02 3c ac bc 53 32 8a bc 47 0c 53 3d
       -0.043117706 -0.021024708 -0.0168697 0.05152538
0002a0 af 7a 35 3c f8 74 55 3a 9e 82 05 3c b8 ab a9 bd
       0.011076613 0.0008142735 0.008148817 -0.08284706
0002b0 45 09 bd bd c5 1a 43 bd 7b 7b 7c 3d d7 1f c9 bc
       -0.09230284 -0.04763295 0.061641198 -0.024551315
0002c0 e7 2f a9 3c 2d 4a d8 bb 43 3c 5d bc 27 54 91 3c
       0.020652724 -0.0066006393 -0.013503137 0.017740322
0002d0 67 ae dc b8 39 77 3c ba 3d da 48 bc 87 b6 f5 3b
       -0.000105229024 -0.00071893964 -0.012259063 0.0074985656
0002e0 65 07 c7 3c cd 21 0f ba 87 35 ab 3c 4a 1c 71 bc
       0.024295518 -0.0005460054 0.020899547 -0.014716217
0002f0 ba 15 80 3c 3a 5f 4d bc ad f4 6c 3c ad ae b1 3c
       0.01563536 -0.012534911 0.014462632 0.021689737
000300 5f 25 c6 3c 6a d8 c4 bc 0f 1e c3 3c 60 d2 ef 3b
       0.024187742 -0.024028976 0.023818044 0.00731878
000310 d2 eb 8d bc 07 38 8c bb cd f9 9e 3c 4d 27 b9 bb
       -0.017324362 -0.00427914 0.019406224 -0.005650437
000320 7a 4a c9 3c 51 96 84 3d 7d be a3 ba 21 b4 ae bc
       0.024571646 0.06473983 -0.0012492683 -0.021326127
000330 26 1a 92 3c 3d 81 3a 3d 42 e6 34 bc f4 b8 c9 3d
       0.017834734 0.045533407 -0.011041226 0.0984973
000340 87 8c ff bd 9f 54 8e bd 4a 4d e9 bc a8 b5 bb 3c
       -0.12477975 -0.06949734 -0.028479237 0.022913769
000350 86 f6 06 3d 87 c2 76 bc 37 4e c3 bd 79 c0 9c bd
       0.032949947 -0.015061027 -0.09536403 -0.07653899
000360 63 a1 ff bd 0d d5 1f 3d 60 cf da 3b 56 af 7e 3d
       -0.12481954 0.03902154 0.006677553 0.062178932
000370 1b 79 1e bd f8 7c 2b be 8e ba 60 be e9 1a 9d 3d
       -0.038689714 -0.1674689 -0.21946165 0.07671148
000380 bc a4 ed 3c f3 d5 7b bb 97 55 15 be 4f 18 13 be
       0.029009216 -0.0038427084 -0.14583431 -0.14364742
000390 1e 73 a8 bc 78 33 ad 39 5f 32 5e bd 7a b0 f5 3b
       -0.020562705 0.0003303548 -0.054247256 0.0074978443
0003a0 d2 5a 0a 3a c5 1a ca 3b 3a c1 6a 3c 2a a4 91 3d
       0.00052778155 0.006167742 0.014328295 0.0711139
0003b0 d0 8f 46 3d 74 27 1b 3d 10 f7 87 bd 30 95 5b 3c
       0.048476994 0.037879422 -0.0663892 0.013402268
0003c0 ce d9 94 3d 37 5e 72 3d 86 db 5b 3d 62 3d b2 bc
       0.072681054 0.05917188 0.05367615 -0.021757785
0003d0 16 27 e2 3b f9 71 65 3d 7a 02 c2 b9 65 74 86 3b
       0.006901632 0.056016896 -0.0003700441 0.004103231
0003e0 ba d1 24 bc cb c1 64 3d 51 04 5a ba 8c 82 26 bd
       -0.010059768 0.055848878 -0.0008316683 -0.040651843
0003f0 40 7b 89 bd 3b b1 b4 3c e8 ce 02 3d db 28 d3 ba
       -0.06712961 0.022057166 0.031935602 -0.0016110198

bias f4 [10]
000000 83 ff 15 3d 9e b5 39 3d df 87 9b bc 49 f7 cd bc
       0.036620628 0.04533922 -0.018985687 -0.025142329
000010 93 97 3f bd ca 9f a3 3b 77 df ca 3c 2f 9f 0a bc
       -0.04677541 0.0049934136 0.02476476 -0.008460804
000020 d7 a6 9c bc 4c 52 0c bb
       -0.019122524 -0.0021411357
