models/model.pt (torch, 144436 bytes, 6 tensors)

weight f4 [32, 1, 3, 3]
00000000: 3313 153d bc2f b53e 0f57 03be 8e9f 073f
00000010: 7384 c33e 7425 bb3e c241 d53e a7d2 e53e
00000020: 62d0 303e 1f32 aebd 8f85 0d3f 4854 ae3d
00000030: fe40 893e d9cf eb3e d2d5 de3e 634d 8a3e
00000040: 264b bd3c 3342 ca3d 1c98 983e 89a1 80bd
00000050: 9ebf 833d 0bd2 1ebe f516 a1be 1eca 10bf
00000060: b073 fabe 6973 f6be 317e 1fbe 8c18 233d
00000070: 455d be3e be47 b63e 3e54 debb a2e9 abbc
00000080: 99d0 c93e e8f5 593e 54bc 073f 1bfa 983e
00000090: 1de2 9f3d 27b7 76be eee1 06bf 4fb1 7dbe
000000a0: fc2b 93be bab8 e1bd becf 44be ca27 dabe
000000b0: 79ff 9dbe aece 893d 5b5f 00be efda 1c3e
000000c0: 006c 06bd e7fe 073f bd71 033f 815b aa3e
000000d0: 2d59 a33e eb9e 573f 2b7f 923e 53b6 513e
000000e0: f815 073f 15be 163d d5e3 0f3f 608b e73e
000000f0: 276c 80bd ad47 ddbd ad94 613e d7a0 88bc
00000100: 5f0b 19bf 795f 8ebe df11 0abf 7f1b 8a3e
00000110: d537 aabe 1508 fbbe c935 02bf 5cce b83e
00000120: a665 2abf 4013 d4be 405a b53e 9fbb cbbe
00000130: 4bb6 213e c5df 863e f2ba 7abe aee8 b83e
00000140: 8696 943e 11aa e1be e987 d3be 98e1 c4bc
00000150: 3daa e7be 03c9 eabd fdd2 68be cf93 76be
00000160: bf7f bebe 0c2f 733d 1f74 a73c e701 163e
00000170: 5469 2b3e 7cdb db3e 4e61 ca3e 75bd 6b3e
00000180: aaae dd3e 8a35 da3e 0a57 0c3f 124f 6a3d
00000190: 679c bd3e b4c0 a43e 71a9 bd3e 676e a53e
000001a0: 304c ee3e baa5 b93d f965 b63e 5527 013e
000001b0: 74cc 2bbf 1f92 133e c5f8 983d b9db 06bf
000001c0: 6969 7fbe 9b97 aa3e c845 01bf 7d9c c6bd
000001d0: 7b02 033f 327a 293c f6ed dbbd 7eda c63d
000001e0: 686c 013f 5b6a a2bd 57c0 e43e c8d8 da3e
000001f0: 03da cb3e 7047 013f 31f5 9bbd 7889 8f3e
00000200: 9a4e 24bd 599b e3be c212 02bf 60ad 833e
00000210: 8685 04bf e1a2 efbe 33bb 9e3d 8f95 863e
00000220: d7ef 203c 3a36 47be 2e71 dd3e d03b d8b7
00000230: a2c0 013f c40a 0e3e 7612 f63e 62e2 ae3e
00000240: 23b9 013f a66e 1abe f990 893e 503f d43e
00000250: a9f2 133f f97e a13d bd4e 023f 909c d43e
00000260: 2b50 143f 44e7 a0be 5f3a cebe b7a1 2dbe
00000270: c013 bebe fb22 dfbe aace a0be e362 25bf
00000280: 21b5 9bbe d2e5 debe 0118 de3e aaab e43c
00000290: ce93 5a3e f29b e43e 0bf1 653e 1a41 433e
000002a0: 9284 76be 11a2 243e 764e 343e 362e a03e
000002b0: d8a0 143f ea65 bc3e 8eee ee3d 8f19 423f
000002c0: db17 e03d 8a4e 013e e9f5 4b3e 7fd4 303d
000002d0: 3611 0d3f 5eb8 7f3d fba8 fe3e c595 093f
000002e0: 2be5 153f c089 2fbd 4d4f 16be fb11 92bd
000002f0: 7557 453e 5878 bd3e baf2 c53e 617e 933d
00000300: baf4 d73e 5cdf 8b3e e134 923d 7097 4fbe
00000310: 8beb 3c3e 9e1e 353e 61ee bb3e fdca 1f3d
00000320: 98c2 c33d 47e1 cc3e e231 d13e a1ad ee3e
00000330: 54f4 cc3d 1c7d 9e3e 7a41 a13e 6c69 90bc
00000340: 5827 b73e d9b6 38be e9e3 bd3e d5d5 d3bd
00000350: 9d1b f23c 828a a63e 6081 ad3e ebc0 083f
00000360: 5036 2ebe cbbc f5be 9368 633e 1225 f9be
00000370: e1f8 e9be ce85 af3a 5434 d8bd e894 2fbe
00000380: 15cd 17be 1e02 133c 65fe a6be 53e1 47be
00000390: 3d2c 2f3d 6c67 a93e 46a9 2abd cbf9 e43e
000003a0: 1eb0 ca3e 4462 093f e423 6e3e 6da5 c23d
000003b0: 7680 ad3e eb3a 513e beaf 473d 4c39 e43e
000003c0: 2990 df3e 6be8 9f3e dcd0 073f f891 c3be
000003d0: 17a9 a2be ad22 863e c1f7 ffbd 8714 23bf
000003e0: 1884 adbe c9ec a6be 1be5 d2be 7dca 24be
000003f0: 7561 e73e c4d2 e73e ecdc 4a3e 4ea0 e73e
0.036395263 0.3538798 -0.12826179 0.52977836 0.38186988 0.36552012 0.41651732 0.44887277
0.17266992 -0.085056536 0.5528192 0.08512169 0.26807398 0.46057013 0.43522507 0.27012166
0.023107123 0.09875908 0.2980355 -0.062808104 0.064330325 -0.15509813 -0.31462827 -0.56558406
-0.48916388 -0.48134926 -0.15575482 0.03981833 0.37180534 0.3560161 -0.006784945 -0.020985428
0.3941696 0.21285212 0.5302174 0.29878315 0.078067996 -0.24093305 -0.5268849 -0.24774669
-0.28744495 -0.11021562 -0.19219872 -0.42608482 -0.30858973 0.06728874 -0.12536375 0.15317892
-0.03281784 0.53123325 0.51345426 0.33272937 0.31903973 0.84226865 0.28612646 0.20479707
0.52767897 0.03680237 0.5620702 0.45223522 -0.062706284 -0.10804687 0.22029372 -0.016678257
-0.59782976 -0.27807215 -0.5393352 0.26974103 -0.3324572 -0.49029604 -0.5086332 0.3609494
-0.66561353 -0.41420937 0.35420418 -0.3979158 0.15792195 0.26342598 -0.24485376 0.3611502
0.2902109 -0.44075063 -0.4131463 -0.024033353 -0.4524707 -0.11464121 -0.22736736 -0.24079822
-0.37206838 0.05937104 0.020441113 0.14649163 0.16739398 0.4294089 0.39527363 0.23021491
0.4329732 0.42618972 0.5482031 0.057204314 0.37033388 0.3217827 0.37043336 0.32310793
0.465425 0.09064813 0.35624674 0.1261266 -0.67108846 0.1441121 0.07469324 -0.5267902
-0.24942555 0.3331879 -0.504971 -0.096978165 0.5117566 0.010344075 -0.10738747 0.09709643
0.5055604 -0.07930442 0.44677994 0.42743516 0.39814767 0.5049963 -0.07615126 0.28034568
-0.040114023 -0.44454458 -0.5080987 0.25718212 -0.5176624 -0.46803954 0.07750549 0.2628598
0.009822807 -0.1945428 0.43250412 -2.5777059e-05 0.5068456 0.13871294 0.4806096 0.3415709
0.5067312 -0.15081272 0.26868418 0.41454554 0.57792145 0.07885546 0.50901395 0.41525698
0.57934827 -0.31426442 -0.4027891 -0.1695622 -0.37124443 -0.43581375 -0.31407672 -0.64604014
-0.30411628 -0.43534714 0.4337769 0.027913887 0.21345446 0.44650227 0.22455232 0.19067803
-0.24074009 0.16077448 0.17608055 0.31285256 0.5805793 0.36796504 0.116665944 0.7582025
0.1094205 0.12627617 0.19918026 0.043171402 0.55104387 0.062431686 0.49738297 0.53744155
0.5855281 -0.042855978 -0.14678688 -0.07132336 0.19271643 0.37005877 0.38661748 0.07201839
0.421789 0.27318847 0.07138992 -0.20272613 0.18449228 0.17687461 0.36705306 0.039011944
0.095586 0.40015623 0.4085837 0.46616843 0.100075394 0.30954826 0.31495267 -0.017628394
0.35772204 -0.18038501 0.37087944 -0.103435196 0.029554183 0.32527548 0.33887768 0.5341937
-0.17012906 -0.479956 0.2220786 -0.48661095 -0.45697692 0.0013391317 -0.10556856 -0.17146647
-0.14824326 0.008972673 -0.32615963 -0.19519548 0.0427668 0.33086717 -0.041665338 0.44721827
0.39587492 0.53665566 0.23255879 0.09504209 0.3388707 0.20432632 0.048751585 0.44574964
0.43664673 0.31232008 0.5305307 -0.38197303 -0.3176963 0.2619833 -0.12498427 -0.637032
-0.33889842 -0.32602528 -0.4119042 -0.16092868 0.4519154 0.4527799 0.19810838 0.4523949

bias f4 [32]
00000000: 6b10 073a 1aae ce3a 089c 913e a0a9 8a3a
00000010: dcf6 95be 11a8 ac3a 922e 403a 54df 51be
00000020: 1124 0d3e e806 bd3e bbea 17ba 29f4 9cb9
00000030: bc00 433e 1720 443d d9b4 ab3e 42a3 ddb9
00000040: d9c7 b4bd 136b 89be 1e7e 483e 5c3a 10ba
00000050: ef9e 033b 0d7f 713e c63a 37ba 730c aa3e
00000060: ba7a a43e 85b2 f13c d2a8 1e3e 3a58 b6be
00000070: 7bab aeb9 a406 463e 2c4a 05bb 0cfa c3b9
0.0005152288 0.0015768439 0.28439355 0.0010579117 -0.292899 0.0013172646 0.0007331158 -0.20495349
0.1378329 0.36919332 -0.00057951704 -0.00029936552 0.19043249 0.047882166 0.33536413 -0.0004227404
-0.088271804 -0.26839504 0.1957936 -0.000550186 0.0020083745 0.23583622 -0.0006989654 0.33212623
0.32124883 0.02950407 0.15494087 -0.35614187 -0.0003331563 0.1933847 -0.00203384 -0.00037379598

weight f4 [64, 32, 3, 3]
00000000: d4b4 cf3c 8f54 053d c059 803c 7e96 e7bc
00000010: c915 8439 c8c8 c7b9 dab7 e3bc 5326 223d
00000020: 2b42 68bd c8c0 783c a143 153d 49a7 043c
00000030: 59be b73c e1c9 253d d74e 98ba d159 6cbd
00000040: 61b8 233d 88aa 5fbd 7a83 4dbc 09ff d1bc
00000050: 8f6a 7ebd 79ab 69bd 402a cbbb 783c 6fbc
00000060: af0f bb3c c980 4f3d 369a 543c d2d7 0b3b
00000070: 1bae bbbc 597b 223d a1b7 2fbd d036 493d
00000080: 7b28 f83c bbe3 72bd 6b63 4dbd 9dbe 01bd
00000090: cd3c f13c a31c 833d a513 2e3d 56f4 af3c
000000a0: 4956 47bc b089 93bb 3cb0 523d 8c2e 743c
000000b0: bf71 4b3d e49f 2a3d 10a5 323d 50a3 073d
000000c0: 0d7e 79bd 0940 3a3d d3f3 ddbc e8e3 51bd
000000d0: e6ce 2a3d 93ec 27bd 8286 07bd ac3d 38bd
000000e0: c431 84bd 55fd b13c dbb4 513d c126 053d
000000f0: aec7 a93c 8640 a73c 1cc5 83bd d3ab 713d
00000100: 63f4 bd3b 2246 40bd 3f40 01bd c7fb 8e39
00000110: e0fc 9bbc 183b 05bd 9a86 d5bc 9a59 0e3d
00000120: e326 37bd f839 10bb 5f7b 113d d860 1ebd
00000130: 1716 4abd 8891 adbc a600 6ebd e9da 0ebd
00000140: 1c17 633c db03 61bd 4600 663c 7e00 173d
00000150: e77c 1e3d 2e65 003a 3a90 1d3d d7d5 28bd
00000160: 3a40 a13b 14cb 0b3c 587a 2cbd 8311 1d3d
00000170: 1a3b 063c 6c7c 7bbd 0e8d b1bc 8fa9 743c
00000180: 6587 103d aeb6 2c3d 068d ecba f01f a93b
00000190: c74d 3cbb 0ebb a9bc 4afa 86bd a9fe 8abc
000001a0: f7f5 1b3c 4735 3a3d 935f 013d 7656 1dbc
000001b0: 2053 16bd e5be 11bc 1638 66bd e414 59bd
000001c0: 7627 cabc 5505 d7bc 9a5b 81bc 5d5e 78bd
000001d0: 6674 fc3c 5c8f 39bd e31d 13bd 617b 7cbd
000001e0: 9d0e 043d 33ab 313d e099 acbc 8479 6abc
000001f0: 08a9 bcbc 0c89 843c 017b 4ebc 6f21 e03c
00000200: 2223 49bd 92c0 fd3c 0631 3a3d 11ca 16bd
00000210: b6c9 013d 9eb5 80bd 25ed 0cbc 82f2 f9bc
00000220: 89c6 a23c 7c65 983b bb1d 35bb a648 4d3d
00000230: 958e 363d 73a3 ed3c d70a 0ebd 0717 67bd
00000240: 4271 61b9 27b0 703d 53de 363d 1a38 993b
00000250: 7692 f8bc df02 86bd 3005 11bc 7320 303d
00000260: be34 c5ba ed9c d9bc 2410 2ebd 9eb7 1e3c
00000270: c4f5 e3bc a3b4 5cbc 3df4 b23c dfa5 03ba
00000280: f17e 2c3d ed01 003d 8b9e 823c 9252 c13c
00000290: 99a8 b33c 7f88 e13c f5c1 13bd 45c8 43bd
000002a0: b082 ad3c 15b5 63bd 38c0 99bc 1461 19bd
000002b0: ffc9 243d 397d 64bc 3f57 843c 97fb ef3c
000002c0: 2a3d 12bd 1579 f53a 0c88 2ebd 795b b83c
000002d0: 2353 a43c 6814 3fbd 595e d13b 3a41 7a3c
000002e0: 7b1f 183d 4567 4bbc 3bc5 82bd 3031 ccbc
000002f0: d5dc 53bc bc04 04bd b489 fbbc 0161 7ebb
00000300: c8f6 02bd 29b0 713c fe19 18bd 3f30 a53c
00000310: 26db ccbc 2d64 dc3c b0cd 0bbd d4a3 7cbd
00000320: 4a2c 093d c7bd d83b 3f55 f33a 2d90 ba3c
00000330: f006 48bd e6ce f63c 3f90 1cbd 2755 433d
00000340: 98e0 e73c 94a0 2d3d 12b3 16bd 60fc ab3c
00000350: 2879 bfbc a31c 20bd 9492 f5bc 3a34 bdba
00000360: 914e 23bd eef2 cc3c a54d 02bd 9554 84ba
00000370: 5faa 423c deff e4bc 2241 8e3c 976c ecbc
00000380: e5f4 77bd 65da 4fbc 6696 c3bc 85cb 193d
00000390: 84aa 74bd 489e 44bd 001e 9a3c 7a86 0d3d
000003a0: cb32 09bd d056 33bd 8a1a 10bd 4797 36bd
000003b0: 8ae0 29bc f3bc d63c 08b9 31bd 2b10 54bc
000003c0: 190e 6d3b cbab 23bd aa6f 8a3c 776f dbbb
000003d0: 0d55 45bb 5ceb 623d 1e3e 42bb 2ac4 e0bc
000003e0: 8023 d0bc a727 11bd 792a d23c 4018 143d
000003f0: bf4f c2bc ef00 d2bc 541f ebbc 9e55 2b3d
0.02535478 0.032551344 0.015667796 -0.028270002 0.00025193233 -0.00038105831 -0.027797628 0.03958733
-0.056703728 0.015182681 0.03644145 0.0080965245 0.022429632 0.04047573 -0.0011620176 -0.057702843
0.03997076 -0.05460599 -0.0125435535 -0.025634306 -0.06211334 -0.057048295 -0.006200105 -0.014601819
0.022834627 0.05065993 0.01297622 0.0021338356 -0.022910168 0.039668415 -0.04289973 0.04912454
0.03029274 -0.059299212 -0.05014364 -0.031675924 0.029447937 0.064019464 0.042499203 0.021478813
-0.012166568 -0.0045024976 0.0514376 0.014903676 0.049669024 0.04165639 0.043614447 0.03311473
-0.060911227 0.045471225 -0.027093804 -0.05124274 0.04170122 -0.0409971 -0.03308726 -0.04498069
-0.064548045 0.021727243 0.051197868 0.03250766 0.020725098 0.02041651 -0.0643408 0.059001755
0.0057969554 -0.046941884 -0.03155541 0.0002727194 -0.019041479 -0.03252706 -0.02606516 0.03475342
-0.04471482 -0.0022007208 0.035518046 -0.038666576 -0.049337473 -0.021187559 -0.058106087 -0.034876738
0.01386049 -0.054935317 0.014038151 0.036865704 0.038693335 0.00048978894 0.038467623 -0.04121956
0.0049209865 0.008532304 -0.042108864 0.03834678 0.008192802 -0.061397955 -0.021673705 0.014933004
0.035285372 0.042166404 -0.0018047399 0.005161278 -0.0028732882 -0.020719077 -0.065907076 -0.016967135
0.009519092 0.045460965 0.031585287 -0.009603133 -0.036700368 -0.00889561 -0.05620583 -0.05299844
-0.02467702 -0.02624766 -0.01579075 -0.060636867 0.030817222 -0.045302734 -0.035917174 -0.0616411
0.0322405 0.04337616 -0.021069467 -0.014311198 -0.02302982 0.01617863 -0.012602569 0.027359692
-0.04910577 0.030975614 0.04545691 -0.0368138 0.031686507 -0.06284641 -0.008601462 -0.030511145
0.01987006 0.0046507698 -0.002763613 0.05011811 0.04456957 0.029008603 -0.034678306 -0.056418445
-0.00021499864 0.058761742 0.04464562 0.0046758773 -0.030343276 -0.06543516 -0.008851334 0.042999696
-0.0015045626 -0.026564086 -0.04249586 0.009687332 -0.027827151 -0.0134708015 0.021844978 -0.000502197
0.04211325 0.031251837 0.01594474 0.023598943 0.02193098 0.027530907 -0.036073644 -0.047798414
0.02118048 -0.055592615 -0.018768415 -0.037446097 0.0402317 -0.013945871 0.016154883 0.029294772
-0.03570286 0.0018728102 -0.042610213 0.022504555 0.020059174 -0.04665032 0.006389421 0.01527434
0.037139397 -0.012414758 -0.06385275 -0.024925798 -0.012931068 -0.032231078 -0.03070531 -0.0038815143
-0.03197363 0.0147514725 -0.037134163 0.020164607 -0.025006842 0.026903236 -0.034131706 -0.061679676
0.033489503 0.00661442 0.0018564834 0.022773826 -0.04883474 0.030127954 -0.0382235 0.04768863
0.028305337 0.042389467 -0.03679187 0.020994365 -0.023373201 -0.03908981 -0.02997712 -0.001443512
-0.03986985 0.025018182 -0.03181233 -0.0010096008 0.01188144 -0.027954038 0.017365042 -0.028860373
-0.060536284 -0.012686347 -0.023875427 0.037547607 -0.05973293 -0.04800251 0.018813133 0.034552075
-0.033495706 -0.043783963 -0.03518156 -0.044577863 -0.010368476 0.026213145 -0.04338935 -0.012943308
0.0036171733 -0.039958756 0.016898949 -0.0066966373 -0.0030110509 0.055400237 -0.0029639076 -0.027437288
-0.025407553 -0.035438206 0.025655018 0.03615594 -0.023719667 -0.02563521 -0.028701462 0.041829698

bias f4 [64]
00000000: 0903 73bd 874d 7dbd ad3b 1cbd 3bf6 443b
00000010: 0ce3 71bd 584e d73c 3b25 a2bc a577 29bd
00000020: 14d2 bf3d 4fb4 aabd aa38 d9bb 18bc 3abd
00000030: 7485 28bc aa93 0a3c 2b0c 82bd 40d3 a83c
00000040: fec0 46bc 4b50 18bd f820 6ebd 49ef 0dbc
00000050: d6cb 7cbd 2852 e738 fa0f 423b 38f0 a83c
00000060: 301d 0d3d 2276 003c e10b 1b3c bea2 093e
00000070: 4e3c 52ba a815 833d 150c aabc 21e2 203d
00000080: a4f2 29bd 5268 b8bb 10ab 17bd 8bf9 af3d
00000090: 300f a7bd 978e 3abd 04fa 52bb ccf0 4c3d
000000a0: 97e2 3abd fc77 71bd 3f9b 1dbd c14f 37bd
000000b0: bc3b 343d 0016 473d d57e 22bd 841b 01bd
000000c0: 2369 473d dc46 b5bc b827 7bbc a39b 423b
000000d0: bbcc 10bd f447 8abd fb2d 5a3d 2a16 22bd
000000e0: c8fb 81bd 7f59 533c 5e12 bfbc 7b01 a43d
000000f0: a6d6 863d e052 91bb 2a62 44bd 357b 03bd
-0.059329066 -0.061841514 -0.03814285 0.0030053991 -0.05905442 0.026282474 -0.019793143 -0.041373868
0.09366241 -0.083351724 -0.0066290693 -0.045589536 -0.010285724 0.008458057 -0.06349977 0.020608544
-0.012130974 -0.03718595 -0.05813691 -0.008663007 -0.06171783 0.00011030241 0.0029611574 0.020622358
0.034451663 0.007840665 0.009463281 0.13440987 -0.00080198504 0.06400615 -0.020757714 0.039278153
-0.041491166 -0.0056276703 -0.037028372 0.085925184 -0.08157194 -0.04554614 -0.0032192478 0.05003433
-0.04562625 -0.058952317 -0.038478132 -0.044753794 0.04400228 0.048604965 -0.039671738 -0.03152038
0.04868425 -0.022128515 -0.015329294 0.0029694817 -0.035351496 -0.06752005 0.053266507 -0.03957192
-0.063468516 0.0128997555 -0.023324188 0.08008095 0.0658391 -0.0044349283 -0.04794518 -0.03209992

weight f4 [10, 1600]
00000000: 1316 6d3c dcff f4bb cb60 b3bc 99eb 8d3b
00000010: a06b d2bc 686a 69bb d85c dc3c ff78 86b9
00000020: efb0 973c bc43 0c3c 4d2c 50bc 06ae 4f3c
00000030: c1a5 53bc cf22 aabc 4728 d9bc 9542 2d39
00000040: e167 13bc 8161 ce3a 8e91 54bc d65f bc3b
00000050: eb4c efbb dadd 973c cd7a 82bc ba12 fcbb
00000060: 2dea 013c 40e3 74bc 9a91 6fba 07da c5bb
00000070: 9093 4a3c 2726 413b 7b20 b43c b58a 233c
00000080: 737b 7ebc 3d89 783c ad19 933c 4d98 3ebc
00000090: 532f 21bc 2f21 ba3c 2dc0 4fbc e061 3c3c
000000a0: 73d7 3b3b da0e 473b 70a5 163c 730b d3bb
000000b0: 0bed cabc 1aeb 86bb 32df 95bc 534d 5b3c
000000c0: 4011 2ebc 9046 c0bc 50a2 abbd 0494 173c
000000d0: 828c fdbc 757e 37bc 8e85 a83c 4871 f03c
000000e0: f0aa 4f3c 6456 cd3c fcc3 31bd b3ef 10bd
000000f0: c413 f23c 4c79 b73c 30a3 0e3d e723 2dbd
00000100: 4e5b 823b 07a8 01bd 0077 e0bc 8f56 23bd
00000110: 6f66 893d f336 af3d d50b e63c 7f29 23bd
00000120: 2ce7 1abd 1dfa 9e3d 4567 123e 3628 833a
00000130: 7eee 58bc 8427 c7bc 47a6 78bc a408 8c3b
00000140: eb55 c83c ff82 983d 058b 6c3d 7e93 ce38
00000150: be02 713b 8555 07bd d3e4 e03d 87f2 e9bd
00000160: b4f3 e0bd 07f5 cb3b d1b1 acbd 2cab 33bd
00000170: c877 88bd 15a0 0c3d 8a99 a53d c655 34bd
00000180: 013c b2bd 8cbb adbd 4547 003d 3494 6b3d
00000190: a22a e4bb 5338 ec3c 2f6b 353d 6b86 753d
000001a0: 1449 8f3c d283 243c 2589 f93c 202d 003d
000001b0: 7f3c a7ba ef98 dd3c 3eb4 733c 6e68 2bbc
000001c0: acb0 d8bb 555b babd 50fa aabc 69fd 27bd
000001d0: 4c8f a0bc 8817 2b39 8a3f 30bd a4a7 363d
000001e0: e010 aabc d289 283d 65a9 3b3d 19ad 573d
000001f0: 9a29 2a3c 3364 813c 4af7 4ebc 2bb5 963c
00000200: 7ae4 e8bb 9a3d 1639 9b34 a03c 4ac2 22bc
00000210: e272 b9bc 9077 d5bc 8d2d 9ebc 1367 7cbc
00000220: e3ba 17bc 6849 a73c e12f a63b 93a1 38bb
00000230: 3659 8f3c 865c e1bc 83e2 c1bc efe3 e5bc
00000240: c3a1 8cbc ee62 4c3c b444 e3bc b646 52bc
00000250: 0004 61bb 5c46 783c 3336 9fba d356 fb3b
00000260: 50a7 363c 3397 5c3b 04db eb3b ba93 47bc
00000270: 4a0b 4b3c dd19 13bc 776a e5bb 71b1 1c3c
00000280: d78b 663c cda7 ca3a cd20 6d3a 40cb a9bb
00000290: 3323 003c 2c8c 80bc 33ab cc3a d3bd 80bc
000002a0: 6f8f 8dbc 75fd c5bc 25f1 9dbc a062 c1bc
000002b0: 63a5 9dbc 67b5 b23b bb9e 81bc 4b3b 933c
000002c0: aff6 97bc 67ff 613c e7f8 9c3b 107f 89bc
000002d0: 5301 fc3b a251 c1bc 0d3a 6abc d367 9c3c
000002e0: 4d88 bb3a 20d6 a73b dde7 75bc 00d0 603b
000002f0: 9a23 89ba 6750 a53a 4d69 f2bb fad1 abbb
00000300: f079 92bc 0d1a ba3c 5a3c 403b 9a08 5bbc
00000310: da4f a23c 807a 0b3b 2aec 9b3c f38f 753b
00000320: fe13 113d 2c2f 913c 5812 193d 677d 443d
00000330: 036a 0f3b 317c d5bb 38db fcbc 841c 12bd
00000340: 0e15 2b3d 7612 53bd fc3d aebc f80b 94bc
00000350: 1051 1c3d fcb7 c0bb 276a e5bd 839c abbd
00000360: 5dd9 15bd a022 71bd 0156 123d 8409 67bd
00000370: 6cb9 703b 16fb c5bb 4197 aa3d f251 d93c
00000380: a977 453b c39b debc 6fd7 ec3c b61b b73b
00000390: 1a6a 703d 0557 4bba 0eb2 b2bc 1b63 123d
000003a0: f769 2d3d 7890 c8bb 0e7d daba 30db 1f3d
000003b0: 727c ae3c 816a 8dbb cb8e 70bd 5588 403d
000003c0: 88b2 8e3c d0f5 3fbc 3cfd fdbc 81f6 1ebb
000003d0: d6d1 283c 14f8 253c f25b 37bd 5f24 fb3c
000003e0: e63f af3c 38d2 4c3d e6a7 abbb 9bb4 d1bb
000003f0: 6424 073d c3f6 af3b 538f ae3b b0aa 9e3c
0.014470595 -0.00747679 -0.02189674 0.004331064 -0.025686085 -0.0035616402 0.02689974 -0.0002564862
0.018516986 0.008561071 -0.012705875 0.012675768 -0.012917937 -0.020768551 -0.026508464 0.0001652337
-0.008996935 0.0015745611 -0.012974156 0.005748729 -0.0073028705 0.018538404 -0.015927697 -0.007692662
0.007929367 -0.014946759 -0.0009138823 -0.006037954 0.012364283 0.0029472203 0.021988144 0.009981801
-0.015532362 0.015169439 0.01795658 -0.011632991 -0.009837943 0.022720901 -0.012680096 0.011497945
0.0028662353 0.0030373842 0.009194717 -0.006440574 -0.024771234 -0.0041173818 -0.018294904 0.013385135
-0.01062423 -0.023471147 -0.08380568 0.009251598 -0.030950788 -0.011199583 0.020571496 0.029350892
0.012675032 0.025065608 -0.043399796 -0.035384845 0.02955044 0.022396706 0.034823596 -0.042270567
0.0039781695 -0.031654384 -0.027400494 -0.03987747 0.06708991 0.085554026 0.028081814 -0.039834496
-0.03781812 0.07762549 0.14297207 0.0010006491 -0.013240455 -0.024310835 -0.015176362 0.004273491
0.024455031 0.074468605 0.057749767 9.850318e-05 0.0036775316 -0.033040542 0.10981145 -0.114232115
-0.10983983 0.006224278 -0.08432353 -0.043864414 -0.066634715 0.034332354 0.08085926 -0.044027112
-0.08702851 -0.08483037 0.031317968 0.057514384 -0.00696309 0.028835451 0.04429167 0.059942644
0.017490901 0.010041194 0.030460903 0.031293035 -0.0012759118 0.027050463 0.014874516 -0.01046191
-0.006612858 -0.090994515 -0.020871311 -0.041013155 -0.01959958 0.00016316597 -0.043029346 0.04459347
-0.02076 0.04114706 0.045815844 0.052655313 0.010385895 0.015794849 -0.0126322005 0.018396934
-0.0071073147 0.00014328063 0.019556334 -0.009934017 -0.022637788 -0.026057988 -0.01930883 -0.015405434
-0.009260866 0.020420745 0.0050716256 -0.0028172478 0.017498594 -0.027509939 -0.02366758 -0.028062789
-0.017166978 0.012474759 -0.027742721 -0.012834242 -0.003433466 0.015153494 -0.001214689 0.0076702624
0.011148289 0.0033659458 0.0071977396 -0.012181217 0.012392828 -0.008978334 -0.007001217 0.00956379
0.014071426 0.0015461385 0.000904572 -0.0051817 0.007820892 -0.01569184 0.0015614986 -0.015715515
-0.017280309 -0.02416871 -0.019280026 -0.023606598 -0.019243902 0.0054537538 -0.015822759 0.017972609
-0.018550245 0.013793803 0.0047904137 -0.016784221 0.0076905875 -0.023598496 -0.014296067 0.019092476
0.0014307589 0.0051219612 -0.015008894 0.0034303665 -0.0010462881 0.0012612463 -0.0073978067 -0.005243537
-0.01788041 0.0227175 0.0029332847 -0.01336875 0.019813467 0.0021282732 0.01903351 0.0037469834
0.035419457 0.017722689 0.03737101 0.047971155 0.0021883256 -0.006515049 -0.03086625 -0.035671726
0.041768126 -0.051531278 -0.02126979 -0.018072113 0.038163245 -0.0058813076 -0.112018876 -0.083794616
-0.036584247 -0.05887091 0.03572655 -0.05640556 0.0036731614 -0.0060418947 0.08329631 0.026528332
0.0030131137 -0.027173882 0.02891132 0.00558802 0.058694936 -0.00077568024 -0.021813419 0.035739046
0.042337384 -0.0061207376 -0.0016669349 0.039027393 0.021299575 -0.004315675 -0.058729928 0.047005016
0.017419115 -0.011716321 -0.03100454 -0.0024255814 0.010303935 0.010129947 -0.04476542 0.030656992
0.021392774 0.050005168 -0.005238521 -0.0063997037 0.03299369 0.0053699925 0.005327144 0.0193685

bias f4 [10]
00000000: 9b4e fd3a 9a08 ba3c b6bb 9cbc 29e9 e7bc
00000010: bf6f a6bc 7564 26bd c4ab 10bc 3278 02bd
00000020: 6dd0 c7bb fc99 daba
0.0019325794 0.02270918 -0.019132476 -0.028309422 -0.020316957 -0.040623147 -0.008830015 -0.03185291
-0.0060978443 -0.0016677971
